checkpoint_actor.pth (torch_old, 366692 bytes, 14 tensors)

fc1.weight f4 [200, 33]
00000000: 3bcf 873e a733 71be f340 63be d9ff 263f
00000010: f904 81be df50 3bbf 9b7f 8fbc 4cf2 9cbd
00000020: 6f95 3e3f c61a 69be b1d4 003f d8a2 a1bd
00000030: 97be 463e 6330 35bf 57c5 c9bd 4015 733f
00000040: ad82 bb3e 4bf4 8f3f 3295 513f 4b69 66be
00000050: af6e 0cbe 4ae4 903c f606 03be 820d 973e
00000060: a379 613e f88b 833f b9bd 1d3f ee1a aa3f
00000070: aa9e fdbe 0626 82bc cd66 b2bf 2285 4abd
00000080: 18d7 49bd 344b 6dbf 1867 293c df36 933f
00000090: 69e7 8ebe 2621 44bf 2b17 543f e535 5fbf
000000a0: d82a e43b 9c7c 45bf 4e9b c4be 18f4 933e
000000b0: 2177 393e 152f b83e 8f59 853e 19b6 b7bf
000000c0: 2700 5dbf dae6 e43e 888c 75bf 65c1 febd
000000d0: 55af cebe ddad b13e b3a0 923d 49ee 61bf
000000e0: 9401 203e 15be 3ebf 75cc 16bf e603 bb3c
000000f0: 795a 0b3f fc90 ad3e 601b 02bb 3fad 00bf
00000100: 40ff 0e3c de08 9d3f 1c78 25bf f05e d1be
00000110: 494a 9c3f c4aa aabf 28f4 98bf 3968 2440
00000120: 140e 35bf c240 ed3d e2bc a93e 4693 fcbe
00000130: 53e8 ebbe b1b0 ca3d 96da 783e 4f89 00be
00000140: bb56 23bf 52c5 edbe 1059 8f3f c2a6 843e
00000150: e4a6 04bf a938 25bf 8125 823d ca2d b53d
00000160: c8d2 9fbe 7663 3fbf 6ae2 4ebe d010 abbe
00000170: 7ad7 b73e 209f 913f 4aa1 d3bd 8065 99ba
00000180: ad3e 98bf 28d3 54bd 6b6f ec3f cc6c b2bf
00000190: 9617 813e 7c82 b4be ed2e ed3f 16d9 043f
000001a0: e8c9 3dbf 05fb bdbe e8ac 1cbf eca0 5f3f
000001b0: 1ba4 93bd c43d cdbe d5c8 10be e696 9a3d
000001c0: d9df 30be a3f9 31bf b253 e33e 52e3 59bf
000001d0: 9af1 b7be ff58 bf3f eda5 a5bf 6f2a aabe
000001e0: 2e31 2e3e 1b27 333d 84c5 93bd 3141 bcbe
000001f0: d370 143d b7e6 7d3f f295 a93f a164 0a3e
00000200: f06c ffbb 448b a9bf b0fa d3bb d8da 1b3f
00000210: 18dc dc3e 6775 ae3e e440 fb3e 3ae2 3f3f
00000220: 0cfd b13e eee7 d13e 704b dcbf 90be a1be
00000230: 0f3f 84bf 4085 e03d 7a4e d2bd de04 c63e
00000240: 140c d23e 5763 743f d3c9 313f ecda 69bd
00000250: c3d2 d5bf 4532 e6be d4f0 06c0 a3df 4f3f
00000260: cdb6 acbd 8176 3f3c c257 20bf ce10 6b3e
00000270: ed64 503e 044d fd3d b247 a0bf 5489 9c3e
00000280: b811 073d e0f8 1a3c 8b2e a2be 00de f5b9
00000290: ba9b 263f c0aa 9abe e253 873e 2c52 37bf
000002a0: aeda da3e e1ea 2dbc 019f 03bf 21c1 0c3e
000002b0: 4c6f 47bb 3b9c eabe 31fb 8dbe 748f d63d
000002c0: 4584 4c3e fc6a 893d c529 81be 08d5 6b3e
000002d0: b81a 833f 8a11 123e a42f d23e 2e1b d4be
000002e0: c75a 023e 7f00 a93d b8ee 19bd 802c 77be
000002f0: 1189 d73d e802 a03d 8221 aa3e 2be7 3b3f
00000300: 004f 983e ffa7 3cbf d628 4f3d 5d02 9bbe
00000310: 08c9 543d 4767 8f40 5a15 d9be 984f e4bf
00000320: 2cfc 793e 8939 5d3f 7e41 a53f fc3d 28c0
00000330: 1675 cd3e c04c adbd 3a38 8c3e 9d6a 20bf
00000340: 49a5 27be a3f2 0fbf 2310 3bbe 3b3c 373f
00000350: f9db 54bd e24f 81bf 3a75 923e a197 aabc
00000360: cdef 1abf 23b8 b03f 83d9 6ebe 8d49 b33e
00000370: ccde fe3b 5d33 053e 0354 703e 2303 1d3e
00000380: f6d8 6fbe 4f21 853e 65be c63e 04b4 ecbc
00000390: 4664 27be 2800 6fbc a51e 02c0 7911 13be
000003a0: 91ed c4bd b326 4f3e e02c 56bf f139 97bf
000003b0: 6708 023e 245c 9fbf b265 2cbd 871f 063e
000003c0: 78c9 9cbf 3962 883d 30bb 403f 4845 233f
000003d0: 94ab 1a3e 522f 51be b160 a43e 90a2 d43f
000003e0: 2a99 77bf 39e0 81bf a865 08bf 0829 ec3a
000003f0: e6c8 60be b1a6 fe3e fefb 213f 5b16 333e
0.26525292 -0.2355486 -0.22192745 0.6523414 -0.25199106 -0.73170274 -0.017516902 -0.07663402
0.7444677 -0.2276412 0.5032454 -0.07892388 0.19408642 -0.7077696 -0.09852093 0.949543
0.36623135 1.1246427 0.8186828 -0.22501104 -0.13714097 0.017686982 -0.12795624 0.29502493
0.22019057 1.027709 0.6161762 1.3289468 -0.49535114 -0.015887272 -1.3937622 -0.04944337
-0.049277395 -0.92692876 0.010339521 1.150112 -0.27910927 -0.7661308 0.8284785 -0.8719161
0.006963115 -0.77143264 -0.38399738 0.28897166 0.1811185 0.3597342 0.2604489 -1.4352447
-0.8632836 0.44707376 -0.9591756 -0.12439231 -0.40368143 0.3470296 0.07159557 -0.8825422
0.15625602 -0.7450879 -0.58905727 0.022829007 0.54434925 0.33899677 -0.0019852743 -0.5026435
0.0087278485 1.2268331 -0.646364 -0.40892744 1.221017 -1.3333364 -1.194951 2.5688612
-0.70724607 0.11584617 0.3315192 -0.4933111 -0.46075687 0.098969825 0.24302134 -0.12552379
-0.63804215 -0.46439606 1.1199055 0.25908476 -0.51817155 -0.6453958 0.063548096 0.08846624
-0.312155 -0.7476114 -0.20203558 -0.33411264 0.35906583 1.1376686 -0.10333498 -0.0011703223
-1.1894127 -0.051959187 1.8471502 -1.3939452 0.25213307 -0.35255802 1.8529946 0.51893747
-0.7413621 -0.37105575 -0.61201334 0.8735492 -0.07209035 -0.40086186 -0.14139111 0.07548313
-0.17272891 -0.6952154 0.44399792 -0.8511249 -0.35926515 1.4949034 -1.2941262 -0.332355
0.17010948 0.043738466 -0.072154075 -0.36768487 0.03624041 0.9918017 1.3248885 0.1351495
-0.007794969 -1.3245625 -0.0064690933 0.60880804 0.43136668 0.34073946 0.49072945 0.7495457
0.34763372 0.4099726 -1.7210522 -0.315907 -1.0331744 0.109629154 -0.102688745 0.38675588
0.4102484 0.9546408 0.69448584 -0.057093546 -1.6704944 -0.44960228 -2.108449 0.8120062
-0.08433304 0.011685968 -0.6263391 0.22955629 0.20351 0.12368205 -1.252188 0.30573523
0.032975882 0.0094587505 -0.31676134 -0.00046895444 0.6508137 -0.30208397 0.26431185 -0.7160976
0.42744964 -0.0106150815 -0.51414496 0.13745548 -0.0030431328 -0.4582232 -0.27730706 0.1047658
0.19972332 0.06709859 -0.2522718 0.23030484 1.0242529 0.14264503 0.41051972 -0.41426986
0.12729941 0.08252048 -0.037581176 -0.24138069 0.1052419 0.07813054 0.3322869 0.7339961
0.29747772 -0.7369384 0.050576054 -0.3027524 0.05194953 4.481357 -0.42399102 -1.783679
0.24412602 0.86415917 1.2910612 -2.6287832 0.40128392 -0.084619045 0.27386647 -0.6266268
-0.16371645 -0.5622961 -0.18267874 0.7157628 -0.051967595 -1.0102503 0.28605062 -0.020824255
-0.60522157 1.3806194 -0.23325162 0.35017052 0.0077780243 0.13007875 0.23469548 0.15333228
-0.23422608 0.26001975 0.38817134 -0.028894432 -0.16346845 -0.01458744 -2.0331204 -0.14362134
-0.09615625 0.20229606 -0.83662224 -1.1814557 0.12698518 -1.2449994 -0.04208917 0.13097964
-1.2248983 0.066593595 0.75285625 0.6377759 0.15104514 -0.20428208 0.3210502 1.661211
-0.96718085 -1.0146552 -0.53280115 0.0018017599 -0.21951637 0.4973655 0.63275135 0.17488997

fc1.bias f4 [200]
00000000: 4578 b9bf cbe1 eabe 735f 80bf 423f abbf
00000010: 57c7 a6be 491f cebe a7b5 8dbe 464b 8fbf
00000020: 34f2 98bf 3ade 42be b29f 2fbf 3d48 01bf
00000030: 2444 24bf fa6e 2cbf 44d4 3abf 9b56 3dbf
00000040: 35e4 23bf 73e8 6abf a450 5abe 8257 40bf
00000050: 981d 13be 0115 31bf 4195 723e da50 9fbf
00000060: 53c9 24bf 6a9a 03bf a35e 39bf ce8e 40bf
00000070: a89e aabf 9be2 afbd 06e9 69be 020b 7ebf
00000080: 81de 263e 864e 71be 0278 c0bf dd15 43bf
00000090: cdbb 97bf 8d68 8bbf 1600 6fbe d9d3 8abf
000000a0: feb5 2fbf 0e8a 28bf efe4 81bf d6fd 803e
000000b0: 2b54 1ebe c9b3 f1be 4651 d9be 252d 4dbf
000000c0: be2e 92bf e6ae 063f f006 03bf a009 6fbe
000000d0: 4669 23bf 9832 f1be 6a16 d4bf 65ac 00bf
000000e0: 33f0 b8bf 7db7 29be 729f 72bf 4595 fabd
000000f0: ad6c ffbd e948 a9bf cc09 4abc 6d62 06c0
00000100: c6cb debf 4067 1fbf d6bc debe cd83 82bf
00000110: 4daf 553e 6348 46bf 0bb3 9c3d 5191 63bf
00000120: de8b 32bf 63fd d53e c64a 13bf da29 a03e
00000130: 35fa 363d 497d 74bf a1dc cebe 6e5c 9cbf
00000140: 240c de3c 2310 a3bf a343 abbe 53ce 91bf
00000150: c58b 11bd d992 00bf 3c6d 18bf aa6a 11bf
00000160: 4b1a a3bf e8ca 2bbf 16a3 bfbd d2e6 d93e
00000170: 35d3 e4bf cb9f a0bf e601 2fbf 3dc9 f6be
00000180: b3f0 10bc 5f08 b9bd 2916 a0bf 3609 373d
00000190: adc1 edbe 29ca 433f a2d5 41bf 08f2 15bf
000001a0: 12c3 a6be df26 023f 8891 61be a72a 8abf
000001b0: 488d 0ebf 60dd 60bc b19c 22bf fce5 75bf
000001c0: 46a0 56bf 5330 023f 5fc5 6fbf 18d5 d4bf
000001d0: a9b3 9b3e e55b c2be 44fe 263f 1771 09bf
000001e0: 356e 8bbf be58 9abe 2b8a 7c3e 175e c93e
000001f0: 36eb 28bf dc5f 98bf d9af 53bf 6197 d9be
00000200: 5cd7 78bf a043 14bf 6b43 dd3e 4320 a2bf
00000210: fdc4 5abf 25a4 34be 45cb 223f 68b6 6bbf
00000220: 320b b5be 8e55 46be f08f 82bf da8d 4bbf
00000230: 0afd 9c3d dc77 66be 9972 19bf cbeb 323f
00000240: 8bc4 2fbf 7b1e b93f 17d2 8cbf 2a26 52bf
00000250: be85 5cbf b5cd 213f ee77 c1be fe09 89bf
00000260: ed27 52bf 4018 c0be 7b9a 89be 4802 3abf
00000270: 27e7 a4bf 93a8 9cbe e153 4abf 4ff3 e8be
00000280: e783 16bf b400 81bf d338 1bbf d1d6 dbbe
00000290: bc4c abbf cd8a c7bf 8abb d53e 0006 f2be
000002a0: fbae 8dbf 9a22 3ebf 5592 a4be 9d07 cebe
000002b0: 749b 1dbf 0c87 32bf 4e7c bcbf e40f c2be
000002c0: 2fa0 8cbe 37e3 4dbf 6010 d3bf 68b0 4dbf
000002d0: 6255 93bf b151 9bbf 4a29 d13d 7c09 35bf
000002e0: e527 8ebf ddfb 16bf b7db 91be 2e18 86bf
000002f0: 7579 74bf d4b1 e4be 95e7 58be 87a7 94bf
00000300: 11de 97bf 83bd 3ebf 700c 4bbf 3ac5 82bc
00000310: 8a5e 313e 20de d2be c136 60bf c6b1 92bf
-1.4489828 -0.4587539 -1.0029129 -1.337868 -0.3257396 -0.40258244 -0.27677652 -1.1194847
-1.1948915 -0.19030085 -0.6860305 -0.5050085 -0.64166474 -0.67356837 -0.7298014 -0.73960274
-0.6402009 -0.9176094 -0.21319824 -0.75133526 -0.14366758 -0.69172674 0.23689748 -1.2446549
-0.64369696 -0.5140749 -0.7241003 -0.752179 -1.3329668 -0.085881434 -0.22842798 -0.99235547
0.16295816 -0.2356511 -1.5036623 -0.76205236 -1.1854187 -1.0891281 -0.23339877 -1.0845901
-0.68637073 -0.65835655 -1.014799 0.2519366 -0.15461795 -0.47207478 -0.4244482 -0.8014701
-1.1420515 0.52610624 -0.5118246 -0.23343515 -0.6383251 -0.47108912 -1.656934 -0.50263053
-1.4448303 -0.16573901 -0.94774544 -0.12235502 -0.124719 -1.3225375 -0.012331437 -2.0997574
-1.7405937 -0.6226692 -0.43503445 -1.0196472 0.20867653 -0.77454203 0.07651337 -0.8889361
-0.6974467 0.4179488 -0.5753597 0.3128193 0.04467221 -0.9550367 -0.40402701 -1.2215707
0.027105398 -1.27393 -0.3345004 -1.139109 -0.035533685 -0.5022407 -0.5954168 -0.5680338
-1.2742399 -0.67106485 -0.09357278 0.42558914 -1.7876955 -1.2548765 -0.6836227 -0.48200408
-0.00884645 -0.090348 -1.2506763 0.04468652 -0.46436825 0.76480347 -0.757166 -0.58572435
-0.32570702 0.5084056 -0.22028172 -1.0794266 -0.5568433 -0.013724655 -0.6352034 -0.96054053
-0.8383831 0.50854987 -0.9366054 -1.6627531 0.30410507 -0.37960735 0.6523173 -0.53688186
-1.0893008 -0.3014583 0.24662082 0.39329597 -0.65983903 -1.1904254 -0.826902 -0.42498305
-0.9720361 -0.5791569 0.43215498 -1.2666095 -0.8545683 -0.17640741 0.63591415 -0.92075205
-0.35360104 -0.19368574 -1.0200176 -0.79513323 0.07665451 -0.2250666 -0.5994049 0.6989104
-0.68659276 1.4462427 -1.1001614 -0.82089484 -0.86141574 0.6320451 -0.37786812 -1.0706174
-0.8209217 -0.375185 -0.26875672 -0.7265973 -1.2883042 -0.30597362 -0.7903424 -0.4549813
-0.58795017 -1.007834 -0.6063358 -0.4293733 -1.3382792 -1.5589234 0.41744643 -0.47270203
-1.1069025 -0.7427155 -0.32142892 -0.40240183 -0.6156533 -0.69737315 -1.4725435 -0.3790275
-0.2746596 -0.8042483 -1.6489372 -0.803473 -1.1510432 -1.2134305 0.102129534 -0.70717597
-1.1105925 -0.5897806 -0.28487942 -1.0476129 -0.9549783 -0.44666922 -0.21182092 -1.1613625
-1.1864644 -0.7450792 -0.79315853 -0.015963186 0.1732122 -0.41185093 -0.8758355 -1.1460502

fc2.weight f4 [400, 200]
00000000: 90d9 c3be 3636 953a cd12 513e f5a5 6cbf
00000010: 1d89 1b3e d60f 623f 5788 c9bd a72b 523f
00000020: a579 01bd fde7 253f 695b 48be beec 5a3d
00000030: 7f2c e2be 7b25 023f ff3b 4dbe 4276 a1be
00000040: 2cf1 fc3e 8670 46bf e014 c03f ebab 8c3e
00000050: fc8d 223f 949a 75be 7110 303f a17a 523e
00000060: a904 f2be 6bd1 75be 6a79 0e3f 339f 1bbf
00000070: 6847 fb3e 88cc 3d3f eaa9 9ebe 873f 17bf
00000080: c5f2 23c0 59b9 95be 8b37 0f3f 086c 66bf
00000090: f0c4 9c3e d698 e0bf 2a8a 133f 07db bd3e
000000a0: 511e 053f f6a5 553b 56f8 bc3e cce9 123f
000000b0: 14ee 143e 3e9e 19bf ff74 cfbe ff30 2fbf
000000c0: 30fe 233f bfa3 673f 968a 74bd feff bebe
000000d0: bec9 35bf 1437 2dbe 709d 393e ba4f 013e
000000e0: bc23 81be 2dab d9be 46d3 b0bc 3f60 01bf
000000f0: 616c 41bf 4a31 5cbf 55b8 de3e 3c04 dabe
00000100: 252e 34bf a8ed 823e d10c 6bbe c62d 96be
00000110: f20e 3d3e 6b4a 233e c87a d7bf de88 653f
00000120: 8817 f3be 46f3 08bf cd03 dcbd cac4 c4bc
00000130: 72f6 53be e668 4abf e566 8c3f 677f c1be
00000140: 1e60 ffbe d9bc d8be ff0e 023e 401e 58bf
00000150: 0137 43be b562 86be 130f 043f ea04 32be
00000160: 2703 21bf 374b d83e 41aa 2abc 44ce 75bf
00000170: d660 44bd a0ee 0abe 8f17 453e 5837 3f3f
00000180: 1053 c13e 1ec8 48bf 70cb a73d cf0e 733f
00000190: d390 c93d 0954 583e e39c 00bf b29a 6bbf
000001a0: aa9d 1d3d e49e e0be 9191 4fbf 4b79 bb3d
000001b0: 1674 f3be 1532 f63e 8ffe ab3e 6580 7fbf
000001c0: 08e5 b33e 3216 e13d 1922 cc3d f2f5 543e
000001d0: 1671 16be 30aa 0d3f f4af 4c3f acc9 92be
000001e0: e0af 313e 345f 69bf 5f53 dfbe 54c7 163f
000001f0: 25c7 373b 14df 4fbf 1959 f73d 6231 2a3f
00000200: b996 83be 856d 903e fa75 953d c81f 623e
00000210: 0dc2 aabf f0cf 0c3f df6f 7ebf 92fa e8be
00000220: ccab 0ebf bc69 693d 960e 5e3f b8fb 21bf
00000230: 15a2 cd3d 4eab 343f 0700 12bf 4ab2 b2bf
00000240: c0c5 d53e 7cc4 db3e 1945 9ebe f356 893f
00000250: c96c 2e3e 69f1 53bf 6514 07bf 3409 8b3e
00000260: 9adb a1bf 9e17 9d3d 181f 1cbf 4cc8 11bf
00000270: 599f bfbe cdbd 443f b1bd a53e f4c8 49bf
00000280: 754d 9ebe 121d 06bf 1e5b 863e c7d8 2f3e
00000290: afd1 3c3f 3c40 983e 4a08 df3e c737 393e
000002a0: 9f6e 1fbf 5dfa 8ebf c2b9 bcbd 760e c23e
000002b0: d6e2 ecbe 2204 b2bd 880f 3c3f 1acf ee3e
000002c0: 036e abbe 31bc 583f 0f38 d0bd 239e 9abf
000002d0: 1bbe 2ebf 7ea0 fa3c 840a 9e3d 51d7 2d3f
000002e0: d6e8 dabe 0218 013e d929 823e 9aae 84be
000002f0: d8f3 ccbf a46c babe 8c6f 92be bc31 803f
00000300: 1d81 3dbe 51a4 8fbd 24e0 1d3f a5d4 4ebe
00000310: b95c 0c3e 5388 b8bf affe 99bd 21e5 283d
00000320: 8d3a 4bbf 5257 043f c8da 783f ebf8 95bd
00000330: e87e 8cbf 7fa3 ebbe f354 c6bf 85cb 4dbf
00000340: 6819 cc3e 4878 35bf 48d9 713f 9dbf e23e
00000350: af84 ee3e 57b6 e6be c235 6f3f 1c7e c8be
00000360: 1c72 e8bf a73c 9bbf f7e9 aabf f028 963f
00000370: a5d1 893d 4631 c33c df50 fa3e 527d e73c
00000380: 9aad 1cbf 4fef 1ebe 23dc 99be 09f5 8ebf
00000390: 9c46 763e 330e 9abf cf1d d6be eb4b 1cbe
000003a0: 3f6d aabe 6e23 d4bd 065d 06bf 76da 76be
000003b0: 50cf ff3e e516 d23e ecaa 96be bca6 98be
000003c0: f6a9 d6bd 7463 3fbe f839 ddbe f725 dbbe
000003d0: c7d7 ca3e b3d1 a3bd aa25 853e 8e24 1abc
000003e0: 449c 13be 9fd1 a63e 8881 223f 4000 de3d
000003f0: bb69 0e3e 5208 2f3d d0fe 9e3d 5435 ddbe
-0.38251925 0.0011383954 0.20417328 -0.9244073 0.15189023 0.88305414 -0.09840458 0.8209786
-0.03161015 0.6480711 -0.1956612 0.05344843 -0.44174573 0.5083844 -0.20042418 -0.31535536
0.4940275 -0.7751545 1.500637 0.27474913 0.634979 -0.23984748 0.6877509 0.20554592
-0.4726918 -0.24005668 0.55654013 -0.60789794 0.49077916 0.74140215 -0.3098901 -0.5908131
-2.5616925 -0.29242972 0.55944127 -0.9000859 0.30619 -1.7546642 0.57632697 0.37081167
0.51999384 0.003260014 0.36908215 0.57387996 0.14543945 -0.60007083 -0.40518948 -0.6843414
0.64059734 0.9048423 -0.05970248 -0.37304682 -0.7101096 -0.16915542 0.18126464 0.1262807
-0.25222576 -0.4251341 -0.021585118 -0.50537485 -0.75556 -0.8601271 0.4350001 -0.42581356
-0.7038291 0.25571942 -0.22954108 -0.29331797 0.18462732 0.15946357 -1.6834345 0.8966197
-0.4747889 -0.53496206 -0.107429124 -0.024019618 -0.2069948 -0.7906631 1.0968901 -0.37792513
-0.4987802 -0.4233158 0.12701033 -0.8442116 -0.19063951 -0.26247182 0.515855 -0.17384687
-0.62895435 0.42244884 -0.010416568 -0.9601786 -0.047943912 -0.1356759 0.19247268 0.7469382
0.37758684 -0.78430355 0.081930995 0.9494447 0.09842076 0.21125807 -0.5023939 -0.9203292
0.03848044 -0.43871224 -0.8108149 0.09153994 -0.47549504 0.48085085 0.3359265 -0.9980529
0.35135674 0.109905615 0.09967441 0.20796946 -0.14691576 0.5533781 0.79955983 -0.28669488
0.17352247 -0.91160893 -0.43618295 0.588979 0.0028042283 -0.81199765 0.12077541 0.664816
-0.2570093 0.28208557 0.07297893 0.22082436 -1.334047 0.5500479 -0.9938945 -0.4550367
-0.5573089 0.0569856 0.86741006 -0.6327472 0.1004068 0.7057389 -0.5703129 -1.396066
0.41752434 0.42923343 -0.30912092 1.072966 0.17033686 -0.8279024 -0.52765495 0.2715546
-1.2645142 0.0767052 -0.60984945 -0.56946254 -0.3742626 0.76852113 0.32371286 -0.78822255
-0.3091847 -0.5238811 0.26241392 0.17172538 0.7375745 0.29736507 0.43561012 0.18087684
-0.6227817 -1.1170155 -0.09215118 0.37901658 -0.46266812 -0.086921945 0.734612 0.4664238
-0.3348237 0.8466216 -0.10166942 -1.207951 -0.6825883 0.030594107 0.077168494 0.6790667
-0.42755765 0.12606815 0.25422552 -0.2591446 -1.6011915 -0.3641101 -0.2860073 1.0015178
-0.18506284 -0.07013763 0.61670136 -0.20198305 0.13707246 -1.4416603 -0.0751928 0.04123414
-0.79386216 0.5169574 0.97208834 -0.07322868 -1.0976229 -0.46023175 -1.5494674 -0.8038867
0.39863133 -0.7088666 0.9447217 0.44286814 0.46585605 -0.4506099 0.934414 -0.39158714
-1.8159823 -1.2127885 -1.335265 1.1731243 0.0672944 0.023827206 0.48889825 0.028258
-0.61202395 -0.15520976 -0.30050763 -1.1168529 0.24050373 -1.2035583 -0.41819617 -0.15263335
-0.33286473 -0.1035832 -0.5248569 -0.24106774 0.49962854 0.41033092 -0.29427278 -0.29814708
-0.10481636 -0.18690282 -0.4320829 -0.42802402 0.3961775 -0.07998981 0.26005298 -0.009408129
-0.1441508 0.32581803 0.634789 0.108398914 0.1390752 0.042732544 0.077634454 -0.4320475

fc2.bias f4 [400]
00000000: 41a9 eb3d e4fd b9be b108 28bf 8cea ebbe
00000010: 32f3 f1be 8af6 43bf a3cf 18bf 6ed8 15bf
00000020: 730e 8dbe 9b5a 12bf fca0 72bf aff1 1dbf
00000030: dd7b d3be 35c3 bbbe 18ac 8fbe 2447 18bf
00000040: a521 cabe 14f6 28bf 331b 053c 8110 c1be
00000050: 1dc3 c4be 4e15 d2be a84f 16bf e090 11be
00000060: 1a13 a4be 2672 14bf ec5e d3be c142 16bf
00000070: f698 1d3e fee2 27be 7a23 2fbe 129c 8cbf
00000080: 49fe 0fbf da82 9bbd 7c7e 91be d147 9bbe
00000090: 64eb 0cbf fc90 43bf cb0e 0dbf 220d 23bf
000000a0: ae23 453c 87c1 24be d639 393c da8a 26be
000000b0: a900 8ebe 6369 c0be 2509 89bd 6310 70be
000000c0: ff15 9bbe e802 e1be edea 41bf 2525 e1be
000000d0: 236b 0ebf 87d9 f2be f564 583c 64f7 2abf
000000e0: cd60 d9be fa24 f9be f825 b4be 3433 a7be
000000f0: 92ad 1abf 5f2d cebe 8d5a 92be 2d7b 96be
00000100: cf8d 1d3e 625c c7be d219 c9be c074 303e
00000110: 61ce 72bf f85d 28bf c03c c5be 5a7d 08bf
00000120: 501b 89be 1d13 12be 5991 0cbf 6505 703d
00000130: 5bf3 7cbe 76de 3ebf 4939 79bf 677e bebe
00000140: 5a0e 15bf e871 bebe a004 1cbf b9ac 58bf
00000150: 1753 1bbf 82d7 d7be 28f5 48bf 9628 adbe
00000160: 104c ecbe 2c94 9bbd d778 d4be 6ce5 1cbf
00000170: 608b dfbe d068 9cbf d384 28bf 0a3a 8abf
00000180: 91ec a4be 7fd9 f3be 9989 d2be 4f2b 84be
00000190: 96c8 74bf f015 1abf 53e2 98bc 2643 113e
000001a0: 28eb e6be 00b4 6bbf f237 c6be 2f38 03bf
000001b0: fddf 983d 3857 ffbe 1fbc aabe d4ce 0cbf
000001c0: 64ec 44bf 4ae0 b5be 8f3b c6be 29a2 b0be
000001d0: 935a 68bf 7922 dfbe daec 0ebd 0645 86bf
000001e0: 77d1 7abe 11ea 87be 00b2 83bf 9388 85bf
000001f0: 53b7 c7be 12cf 06be 3388 79bf e42b a5be
00000200: 06d6 6bbf 1edb f43d 42d9 4bbf 51c2 65bf
00000210: 4f48 3ebf 31e4 fbbe 27e9 dfbe 80ba 22bf
00000220: cf55 9cbf 8b14 40bf 578e 25bf 5f9e ddbe
00000230: e785 2fbf d520 33bf f1aa 81bf cc9c 69be
00000240: 8156 1e3d 5a18 52be 4e94 4cbf 8d8e a4be
00000250: 3dc7 a9be fcff 46be 0e52 38be 9866 92be
00000260: 6572 afbc 217b 24bf 357a 91be 8e41 6cbe
00000270: d03e e1be 4b1d d2be 7e24 43bf 9384 f73d
00000280: 7741 29bf e834 3abf 0200 16bf a931 44bf
00000290: 2320 f4bd 17e4 15bf 4f79 73be 5bf2 f9bd
000002a0: 8df4 14be 6285 3cbf 688f 07bf 5964 24bf
000002b0: b995 2cbe 1572 4cbf 667f 10bf 14ee cebe
000002c0: f107 94bd 0f35 3bbf e37e 08bf 4903 dabd
000002d0: e3b6 b0be 7c55 c4be 725d 22bf f734 e0be
000002e0: a37c 85bd 8637 b2be 2169 46be 33ed 09be
000002f0: 149e 9cbe 6571 aabe 2a32 eabe d4b5 91be
00000300: 5389 33bf 9ca2 fbbe 6727 4fbf 0ef6 11bf
00000310: f16d 0dbf 1daa 10be 8fa2 afbf 24b2 55be
00000320: dab6 01bf de19 00bf c5d3 12bf fd40 50bf
00000330: 231a 24bf 9970 ccbe a23f ecbe c459 1dbe
00000340: de59 35bf a7ac 1ebe f9d2 1abf 6398 2abe
00000350: 6b86 acbe 5e94 02bf de01 72bf 3d54 14bf
00000360: 91f9 21be 0c9b cfbe bb78 35bf 3181 74bf
00000370: 6ce7 ecbe 119f 1ebf 42b3 87be e392 fabe
00000380: 67fa 5dbf d7c2 2dbe 811b 493e e7ca edbe
00000390: 5e6c c8be a1ea 18bf 23d5 85be 2309 93be
000003a0: f45e 1cbf 7a95 aebe 4db8 88bf be01 073e
000003b0: 5092 a23c a504 d4be f4a6 abbe 8644 3abf
000003c0: f6f7 79be 5fb3 53be baa1 edbe 7e2b 4fbe
000003d0: 4f47 01bf d028 f4bd b57e d2be 9b12 95be
000003e0: 2fae 7dbe a1cd e1be d2a7 5fbe 5730 fabd
000003f0: 55e0 0cbf 5d10 0fbf 5250 3f3e 10bc d93c
0.11506892 -0.36326516 -0.6563826 -0.46077383 -0.47255856 -0.76548064 -0.5969183 -0.5853337
-0.27550086 -0.571695 -0.9477689 -0.61696905 -0.41305438 -0.3667237 -0.28060985 -0.5948355
-0.39478794 -0.66000485 0.008124161 -0.37707904 -0.3843011 -0.4103188 -0.58715296 -0.14215422
-0.32045823 -0.57986677 -0.41283357 -0.5869561 0.15390381 -0.16395184 -0.17103377 -1.0985129
-0.56247383 -0.07593317 -0.28416812 -0.3032823 -0.5504668 -0.76393104 -0.551007 -0.63691914
0.0120324325 -0.1608945 0.011305293 -0.16263905 -0.2773488 -0.37580404 -0.06691197 -0.23443751
-0.3029022 -0.4394753 -0.75749093 -0.43973652 -0.5563223 -0.47431585 0.013207664 -0.6678374
-0.42456666 -0.48661023 -0.35185218 -0.32656252 -0.604211 -0.4026899 -0.2858471 -0.2939085
0.15386127 -0.3893767 -0.39277512 0.17232037 -0.9484616 -0.65768385 -0.3852291 -0.5331627
-0.2677865 -0.14265104 -0.5490928 0.058598895 -0.24702208 -0.745582 -0.97353035 -0.37205812
-0.58225024 -0.3719628 -0.6094456 -0.84638554 -0.6067366 -0.42156607 -0.7849908 -0.33820027
-0.4615178 -0.07596621 -0.41498443 -0.6128757 -0.43661022 -1.2219486 -0.65827674 -1.0798962
-0.32211736 -0.47626874 -0.41120604 -0.25814292 -0.9561857 -0.60189724 -0.018662607 0.14185771
-0.45101285 -0.92071533 -0.38714558 -0.51257604 0.074645974 -0.4987123 -0.3334665 -0.55003095
-0.76923203 -0.3552268 -0.38717315 -0.34498718 -0.90763205 -0.43580988 -0.034893848 -1.0489814
-0.24493967 -0.26545766 -1.0288696 -1.0432304 -0.39007053 -0.13164929 -0.9747345 -0.32260048
-0.9212345 0.11955856 -0.79628384 -0.8974963 -0.74329084 -0.49197534 -0.4373257 -0.63565826
-1.2213687 -0.75031346 -0.6467032 -0.4328489 -0.68563694 -0.6997197 -1.0130292 -0.2281372
0.038656715 -0.20517102 -0.79913795 -0.32140008 -0.3315982 -0.19433588 -0.18000051 -0.28593898
-0.021416852 -0.6425038 -0.2841355 -0.23071882 -0.43993235 -0.41037974 -0.7622756 0.120858334
-0.66115516 -0.7273698 -0.5859376 -0.76638275 -0.11920192 -0.5855116 -0.23776744 -0.12204429
-0.14546414 -0.73641026 -0.52953196 -0.6421562 -0.1685399 -0.79861575 -0.56444395 -0.40416014
-0.07228077 -0.73127836 -0.53318614 -0.10645158 -0.34514531 -0.3834647 -0.63423836 -0.4379041
-0.06517913 -0.34807986 -0.19376041 -0.1346939 -0.30589354 -0.33289638 -0.45741397 -0.28459036
-0.70131415 -0.491475 -0.809195 -0.57016075 -0.5524588 -0.14127393 -1.3721484 -0.20868737
-0.50669634 -0.5003947 -0.57354385 -0.81349164 -0.6410238 -0.39929655 -0.46142298 -0.15366274
-0.7084025 -0.15495549 -0.6047817 -0.16659693 -0.33696303 -0.5100764 -0.945341 -0.5794104
-0.15817858 -0.4054798 -0.70887345 -0.9550963 -0.4627031 -0.61961466 -0.2650395 -0.4894019
-0.8671021 -0.16968857 0.19639398 -0.46443865 -0.39145178 -0.59733015 -0.26139173 -0.28717908
-0.61082387 -0.34098417 -1.0681244 0.13184258 0.019845158 -0.41409793 -0.33525813 -0.7276081
-0.24410996 -0.20673893 -0.4641245 -0.20231435 -0.50499433 -0.11921847 -0.41112295 -0.29115757
-0.24773477 -0.44102195 -0.21841362 -0.12216251 -0.55029804 -0.55884343 0.18682984 0.026578933

fc3.weight f4 [4, 400]
00000000: ba7f 98be a776 84bf 2f91 063c 87c2 8e3e
00000010: 53b6 913d f424 3a3f 31bd f5bb cfba 223f
00000020: 5d37 6c3f a860 59be d815 4bbf 1b25 c9bd
00000030: 798d 633f 549d 9dbf 63c4 22be 7351 5a3f
00000040: b319 2abf 5fe2 f53e e0d4 a5bd fcf0 433f
00000050: a39f 7b3d 4a4f 35bf 272a 0140 6e5d f33e
00000060: c300 b5be c867 803e 3471 183f 9531 4c3c
00000070: 14a6 2f3e b9fd 08bf c490 f33e 45a1 10bf
00000080: 3e05 17bf 17a8 723e a403 853f 078f f9be
00000090: b192 a8bd b624 4dbf 8be4 89bd e175 ed3d
000000a0: ae11 623d 7938 873e e978 443e 36aa 0bbf
000000b0: f1fd 09bf 221a 0cbf 4c89 0d3f 18ed 9c3d
000000c0: 2bc9 64bf 0796 ffbe b4d4 873d 957f 65bf
000000d0: 6cc4 6e3d 7d54 493c b38f 673d 9537 fb3c
000000e0: e593 7fbe 4c26 173f 8bcf 88bf 0c71 69bf
000000f0: d68d c6bd d2f5 4fbe ce15 a0bf 76bd 1d3e
00000100: 0528 703e d5ad b4bd 79ec 41bf 7024 e43d
00000110: fae8 f53e 3c9b 5a3f efbf 9fbe c752 3fbf
00000120: d1ee 933f 2958 f83d 51e6 2dbf e1b6 883f
00000130: e3fa 59bf 0d3a bcbf fd3e 843f c3b0 8b3f
00000140: 7fad 3f3f dbfd cfbe e72c d23e 55b1 73bf
00000150: 4978 0bbd 7075 94be 9d73 17be 6c70 c6bf
00000160: 23f2 b3bf dd7f 113f 15c2 893f 73a9 49bf
00000170: 3483 a3bf e818 113d 2986 963e bf18 a8be
00000180: dab0 9bbe e1a1 40bf 66bb d6be 32e9 01bf
00000190: 601d 423f 72fd 3ebf 04a3 89be 6d55 983e
000001a0: 00d1 883f 2e4d 5f3f 10a4 d4be 59ec 383f
000001b0: 3f78 e1be d090 c03e 45f9 cbbe edc6 95bf
000001c0: 4744 e4be 39c6 8bbe e20d b7be 47b3 3abf
000001d0: 019c 5a3e 673d 0abf 7b3e d53d 8a63 e1bd
000001e0: 28f6 fd3d 2789 873e 5ab9 ae3f 572a b1bf
000001f0: dcd6 fd3e 004b 40bd 4f8d 203f 77ad 863f
00000200: edd6 00c0 d34c 873f a5e0 06bf 376d 583f
00000210: 5d7a 10bf 97a5 503f c499 9a3e 8427 bbbf
00000220: 2bde 9e3f 81b6 b3bf f43b 8abf a45e 543f
00000230: ffa4 25bf a0f1 513f 829a 873f f4c2 34be
00000240: 9bee 413f 355d efbe f8ce 9f3e 4725 383f
00000250: b51e f6be 687e af3f 353f 743f 5cf4 81bc
00000260: 5dd4 b0be 958a 9fbd c981 9a3f f3c9 c8bf
00000270: ab11 83bf a089 853f 3f44 bfbf 39e2 c0be
00000280: 95c0 913f e252 b9be b5f8 703f 8188 d03f
00000290: 2d00 673c 84fc 10bd f701 77bf af9f 43bf
000002a0: 866b 853e 9698 043e 7c0d dc3e 6011 493f
000002b0: d222 5bbf ed0a bbbf 4305 44bd 25f1 703f
000002c0: 16c9 76bf cad5 a9bf 32d0 193f 6aa4 3f3e
000002d0: f60e fa3e b2b3 533f 3cfa 83be d4b3 22be
000002e0: 6391 3c3f ed70 783e 6254 c8be de3c 33bf
000002f0: 9318 93bf f071 b0bf 1dce a0be fa3c 11bf
00000300: 5266 833f 5621 ebbe 33ce 473f 8fe1 a63f
00000310: 3a4d 8bbd 8981 44bf 1752 c63f 73f9 e33c
00000320: 908e 413f 266f 9ebd 842b 673f 408c 62be
00000330: 9578 83bd 61b7 cbbf 7520 0b3d e1f7 a8bf
00000340: f9d4 383e e9ac 7fbf c58f e53e c354 c1be
00000350: 16b9 cfbe 1d3d 96be da91 513f 1209 bbbe
00000360: 02dd d8be d270 383f 41b5 81bf c82f b73d
00000370: 20fb 0abf ce9b 21bd d25f 9c3f 8188 813f
00000380: 9899 02bf 8a8a 363f 71b3 c53b 1f3a 39bf
00000390: 9c09 7b3f 2585 183d 10cb 963f 695e 7abf
000003a0: 60e8 043e 95bf 7abe 0f37 5f3f f9ef 003e
000003b0: 7688 683f 1650 553f 00c4 2a3f 1316 143f
000003c0: dca1 203f 964e 45bd 0c1b aebf ec31 bcbe
000003d0: b953 0f3f b392 5d3e 5fea 77bf 444e c0be
000003e0: 3d3c 5abf 3fdb 283e 3357 e03e 9a4a 52be
000003f0: cf29 8cbe 0a6d 633b 46e6 9c3e 5dbe 083d
-0.29784948 -1.034871 0.008213325 0.27882788 0.07114854 0.72712636 -0.00749936 0.635663
0.9227198 -0.21228278 -0.79330206 -0.098215304 0.88887745 -1.2313638 -0.15895228 0.8528053
-0.66445464 0.4802427 -0.08097243 0.7653959 0.06143154 -0.7082411 2.0181978 0.4753222
-0.35352144 0.2507918 0.59547734 0.012462993 0.17153198 -0.5351215 0.47571385 -0.5649608
-0.58992374 0.23696934 1.0391736 -0.48741934 -0.08231104 -0.8013414 -0.06733044 0.11594749
0.055192642 0.26410273 0.19186749 -0.54556596 -0.5390311 -0.54727376 0.55287623 0.076624095
-0.8936946 -0.4991915 0.06632367 -0.896478 0.05829279 0.01228821 0.056533527 0.030666152
-0.24958761 0.5904281 -1.0688337 -0.9118812 -0.09695022 -0.20308617 -1.2506654 0.15404305
0.23452766 -0.08822218 -0.75751454 0.111397624 0.4802931 0.8539312 -0.3120112 -0.74735683
1.1557256 0.1212619 -0.6792956 1.068081 -0.8514845 -1.4705216 1.0331722 1.0913318
0.7487411 -0.40623364 0.41049883 -0.9519246 -0.03405026 -0.28995848 -0.14790197 -1.5503058
-1.4058269 0.5683573 1.0762354 -0.78774184 -1.2774415 0.035424143 0.2939923 -0.3283138
-0.30408365 -0.7524701 -0.4193985 -0.5074645 0.7582607 -0.74605477 -0.26882184 0.29752675
1.0688782 0.8722714 -0.4153142 0.7223564 -0.44037053 0.37610483 -0.39838615 -1.1701332
-0.4458334 -0.2729967 -0.3575278 -0.72929806 0.21348573 -0.5399994 0.10412308 -0.11005314
0.12400466 0.26471826 1.3650315 -1.3841046 0.49577987 -0.046946526 0.6271562 1.0521687
-2.013118 1.057032 -0.5268653 0.8454165 -0.5643671 0.8150267 0.3019544 -1.4621434
1.241155 -1.4040071 -1.0799546 0.8295691 -0.6470489 0.82009315 1.0594027 -0.17652494
0.7575471 -0.467508 0.31212592 0.7193188 -0.48070303 1.3710451 0.95408946 -0.01586359
-0.3453702 -0.07790104 1.2070857 -1.568663 -1.0239767 1.0432625 -1.4942702 -0.37672594
1.1386896 -0.36196047 0.94129497 1.6291658 0.014099163 -0.035397068 -0.96487373 -0.7641553
0.26058596 0.12948832 0.42979038 0.7854214 -0.85600007 -1.4612709 -0.04785658 0.9411796
-0.9640058 -1.3268368 0.60083306 0.18715063 0.4883954 0.8269607 -0.2577685 -0.15888911
0.7365934 0.24261828 -0.3912688 -0.7001475 -1.1491874 -1.3784771 -0.31407252 -0.5673367
1.0265601 -0.4592387 0.7804901 1.3037585 -0.06801839 -0.76760155 1.5493802 0.027828908
0.7560816 -0.07736044 0.90300775 -0.22123814 -0.064194836 -1.5915338 0.0339665 -1.3200647
0.18049993 -0.99873215 0.4483625 -0.3775998 -0.40570897 -0.293435 0.81863177 -0.36530358
-0.42356116 0.7204715 -1.0133439 0.089446604 -0.54289436 -0.039455228 1.2216742 1.0119783
-0.51015615 0.71305144 0.006033354 -0.7235431 0.9806154 0.03723635 1.178072 -0.9780031
0.12979269 -0.24487145 0.8719339 0.12591542 0.9083322 0.83325326 0.6670532 0.5784618
0.6274698 -0.04817065 -1.3602004 -0.36756837 0.55987126 0.21637993 -0.96841997 -0.37559712
-0.85248166 0.16489886 0.43816528 -0.2053627 -0.27375647 0.0034702444 0.30644435 0.03338467

fc3.bias f4 [4]
00000000: 2c38 4ebf 5dbf 9cbf 8cb1 62be 5ee8 1dbe
-0.8055446 -1.22459 -0.22138041 -0.15420672

bn1.weight f4 [200]
00000000: bfe6 1a3f 4514 333f 37de 043f 222e 273f
00000010: 486d 443f 1999 913f 1685 4c3f 7ac1 183f
00000020: a359 123f f01d 0d3f 4f7a 073f a177 903f
00000030: 5528 253f 2bdb ed3e 1ae2 8a3f a005 4e3f
00000040: 4db1 fe3e 6514 333f 07bd 923f d342 5bbf
00000050: 2c3e f73e 8f1a 0c3f a8bc 183f 4f76 f63e
00000060: 025b 403f 382c 373f da68 243e c720 073f
00000070: 705b 013e 4ec1 4e3f 1f04 2c3f 0249 213f
00000080: 8301 0f3f 3035 413f 9a2b 8b3f ec02 053f
00000090: 53fc 393f 113b 083f 7c04 f43e 8a11 3e3f
000000a0: 5172 fd3e a006 f23e 7e79 1c3f 1444 323f
000000b0: efc3 5f3f 7ac5 fc3e 031e 183f cdb6 c63e
000000c0: 4670 253f 721a 2d3f 5c80 f23e 4ada 753f
000000d0: ab50 ca3e 56c2 c53e 2ead 633f 8c8d 913e
000000e0: b26e 143f f2e7 313f 5362 0d3f df68 d63e
000000f0: df97 f73e 30eb be3e 85ec dd3e f639 233f
00000100: efdb 183f 7b82 203f e67d 533f 8a91 693f
00000110: 22f4 66bf d45a 0a3f 92ca 2f3f ae0b a23e
00000120: 0c4d d43e c2e8 033f 4c24 263f 0313 143f
00000130: f311 3d3f 11d4 2dbf ecc8 673f 6fa2 f03e
00000140: 19e1 623f b35e 793e 9aa9 0c3f ce9b 7e3f
00000150: aba2 5c3f 8a6b 343f 3d34 013f ac00 8a3f
00000160: d861 213f f075 b43e bcf9 013f d0b7 243f
00000170: 6d96 8c3e d189 323f beff 153f cccb 4a3f
00000180: 1651 883f 7c3f 443f 448b 203f 9b5f 553f
00000190: fd01 083f 7ce8 083f e9a6 123f 7acc 733f
000001a0: 94ba 363f 446c 843f 6719 4d3f f47e 193f
000001b0: bf2e bf3e c4e5 7d3f 05b9 973e 95be 3c3f
000001c0: 15e9 4d3f 59cb f43e 72d7 fb3e e913 113f
000001d0: 3994 1c3f e2e3 ea3e 7464 603f 3ad5 ef3e
000001e0: 378c dc3e f635 f83e f050 393f d2e6 393f
000001f0: d097 073f 0297 233f 27c9 9e3e 6d9f 213f
00000200: 20e0 273f 294e 113f a5e0 1f3f 4d01 113f
00000210: 97d1 693f 6b41 4e3f 1204 813f e6ef 383f
00000220: 091f 573f ca03 143e 5341 103f 7b2d 2a3f
00000230: a0e5 013f 48c9 bb3e 8f10 ad3e 7346 333f
00000240: 3fc6 013f 9ba4 683f 87d2 323f f21f 5f3f
00000250: 9941 37bf 44cd 8b3f 18d9 4e3f c4fa f03e
00000260: e1a8 5f3f e624 4b3f dd69 f63e 845d 073f
00000270: 0a62 2a3f 6a53 cf3e 06ff 6b3f fd6e 8d3f
00000280: dd2a 463f 1164 7a3f ba1c 153f f359 333f
00000290: be18 4c3f 80b9 053f d71f 633f 26ff 273f
000002a0: 96eb 2a3f a9c6 023f 9985 0b3f a562 303f
000002b0: e8e1 5b3f de50 723f 347d 3d3f 3014 0a3f
000002c0: c526 2e3f a847 0d3f 24ac c53e 7993 8a3f
000002d0: ca86 213f f77e c13e a61c d03e d329 163f
000002e0: ea87 c13e 52fc 983e 4f28 043f 9a25 473f
000002f0: fd47 3f3f dfd5 423f ac9f 6f3f aed2 1e3f
00000300: 4631 143f baa6 4c3f 6abd 033f 8996 083f
00000310: f56b 843f a8bb 1e3f 6e2c 1cbf 6d6c f23e
0.6050834 0.69952804 0.5190157 0.6530477 0.7672925 1.1374847 0.79890573 0.5967022
0.57168025 0.55123806 0.52921003 1.1286508 0.64514667 0.46456274 1.0850251 0.80477333
0.49744645 0.69952995 1.1463937 -0.8564884 0.4828962 0.54728025 0.59662867 0.48137137
0.75138867 0.7155185 0.16055623 0.5278439 0.12632537 0.8076371 0.6719379 0.63002026
0.5586168 0.7547178 1.0872681 0.51957583 0.7265064 0.5321513 0.4765967 0.7424551
0.4950128 0.4727068 0.6112288 0.6963513 0.87408346 0.49369413 0.59420794 0.3881134
0.6462444 0.6761848 0.47363555 0.9603621 0.3951467 0.3862483 0.88936126 0.28428304
0.5798141 0.69494545 0.55228156 0.41876885 0.48358056 0.3728881 0.43344513 0.63760316
0.5971059 0.626991 0.8261398 0.912377 -0.9021627 0.5404484 0.6866847 0.31649536
0.41465032 0.51527035 0.64899135 0.5784151 0.73855513 -0.6790171 0.9054096 0.46998927
0.8862472 0.24352531 0.5494629 0.9945649 0.8618571 0.7047659 0.50470334 1.0781455
0.6303992 0.3524623 0.5077169 0.64342976 0.27458516 0.6974154 0.58593357 0.7921722
1.0649745 0.7665937 0.627125 0.8334901 0.53128034 0.53479743 0.57285935 0.9523388
0.71378446 1.034554 0.80116886 0.5995934 0.37340352 0.9917872 0.29633346 0.73728305
0.8043378 0.47811392 0.4918781 0.56671005 0.6116367 0.45876986 0.8765328 0.46842366
0.43075725 0.4847867 0.72389126 0.7261783 0.5296602 0.63902295 0.31012842 0.6313389
0.6557636 0.5675989 0.62452155 0.5664261 0.91335434 0.8056857 1.0079367 0.72241056
0.8403173 0.1445457 0.56349677 0.6647565 0.50741005 0.36677003 0.33801696 0.7002937
0.50693125 0.9087617 0.6985249 0.8715812 -0.7158447 1.0922017 0.8080001 0.4706632
0.87367064 0.7935318 0.48127642 0.5287707 0.66555846 0.40493327 0.9218601 1.1049496
0.77409154 0.9780894 0.5824696 0.70059127 0.79725254 0.52236176 0.8872046 0.656237
0.66765726 0.5108438 0.5450073 0.6890052 0.8589158 0.94654644 0.7401917 0.53937054
0.6802791 0.55187464 0.38607895 1.0826255 0.63096297 0.3779218 0.40646857 0.5865757
0.37799007 0.29880005 0.51624006 0.7779175 0.7471922 0.7610759 0.93603015 0.6204022
0.57887685 0.79941905 0.514609 0.533547 1.0345446 0.6200509 -0.61005294 0.47348347

bn1.bias f4 [200]
00000000: b1d1 ff3e 4241 18bd d3e7 723b 23c0 6d3e
00000010: 38e6 423f 5d2b 943e a3a6 263f 3e4f cd3c
00000020: 3537 123f c5f3 bdbd 9f7e 973d 2aec 553f
00000030: 32b2 2b3e 842c 3d3e 12dc 4a3e 8674 5b3f
00000040: 6817 433e 06ee be3e e080 8d3e 8074 83bf
00000050: 4faa ab3d fff6 503f dcb0 a93e a540 293e
00000060: fbd1 963e 6c9b 153e 9b8b 133d 7153 a03e
00000070: a76f 893c 822c 923e 7ea8 3f3e 7105 773e
00000080: 5859 9f3e 5de2 3d3f 66a8 303f 8c4b ca3e
00000090: c130 a23e 5644 9d3d a990 82bd ffb5 e03e
000000a0: f6e9 9b3f 5dcb 2d3e 7dfd 193e 7a8c 503d
000000b0: f7cf 163f 9ecf b73d 2e81 aebd d880 313d
000000c0: eeba d83e 2ff4 03be 99b6 773e 60e6 823e
000000d0: ff15 123e 81f8 903d d5ac 9e3e 7e88 b73c
000000e0: 58fb 313e 81c1 13be ce5d d53e 764b af3e
000000f0: 3ae3 683e db46 f13d 6ec7 9f3e 5e67 933e
00000100: e8c5 8d3e cbc9 4d3e 243b 4f3e fde3 693f
00000110: 1f2c 5340 5430 1d3e 82c1 873e 0218 fa3d
00000120: 01d6 343d 0919 353f 1e94 d63e 8a89 783e
00000130: 7379 ac3e fa2e 29be 3331 8a3e 2a28 093f
00000140: 03da 5dbd 45ad 603e ff85 1a3e ca2f be3e
00000150: 41d5 1e3f 3899 c23e fcb8 c0be 93bf 613f
00000160: 62cf 503d 7dd9 2e3e 7a91 3b3e 558e bd3e
00000170: f133 d2bd da76 8b3e 1761 093e 960f b13e
00000180: 0fbd a53e eb3a a33e 366f bf3c 08d0 e33e
00000190: 4260 473e 4f4b e73d a3cb 253e 47c4 d73e
000001a0: 6c60 843e 3ccb 7f3e 92d1 643f 0776 513f
000001b0: e0ee 3bbe 27e4 023f 4392 3c3d 55ac f13e
000001c0: d8a4 173f d56e cb3d ab12 883d 1f7d 05b7
000001d0: 2ce8 e03e b257 4b3e d52a eb3e a4c6 1e3e
000001e0: 9d52 b53d 51cf 2f3e 36b6 d33e 4835 9c3e
000001f0: f348 dd3d 3950 923e cb2e 9f3d 35ca 3d3e
00000200: 2d4c a03e e780 883e bf8b 953e 54d5 963d
00000210: 7503 163f 9da4 81bd c0b7 b33e 68a0 f23e
00000220: bccd 323f 54ba 1fbc 5939 943e 59b3 713d
00000230: 64c2 813d fedb c6bc ab64 ee3d 8b57 85be
00000240: 98bf 903e 8fa1 923e 9cfd 6c3e f651 22bd
00000250: 3134 ac3f 8c54 873e 2d94 b63e f76c 4d3e
00000260: db3f 213e b126 083f e4d3 8e3d aa9a 5b3e
00000270: 3a71 9f3e ce67 623e 7149 df3e aa0c 783f
00000280: 59b5 2c3f 5926 183e 20fe 04be 8f18 863e
00000290: 7920 ad3e 4bc6 bc3d d2e1 a03e 889a 97bd
000002a0: 7ff9 c73d edc7 073f 4d36 153e 9f3c 453e
000002b0: 42ec 95bd 9c9b 8d3e 054a 033f 241b 0e3d
000002c0: 8436 473e 6194 4e3e f33c a0bc 9953 b33e
000002d0: 8bc2 713e 0825 043e 24e9 473f 985d 0c3e
000002e0: 94e1 f4bd f316 d53d 47e1 1a3e 02fe 2e3e
000002f0: 5794 673d be74 263f 3c2e 153f 6bf5 4abd
00000300: 23a5 803d 5f61 603f 1c9d 003e aeeb 1c3e
00000310: 8272 d23e f21d 4d3e 4792 1840 d36b 88bd
0.4996467 -0.03717161 0.0037064448 0.23217826 0.76132536 0.28939334 0.6509802 0.0250622
0.5711549 -0.09275011 0.07397198 0.8356348 0.16767195 0.18474013 0.19810513 0.85724676
0.19051898 0.37290972 0.27637386 -1.0269928 0.08382093 0.81626886 0.33142745 0.16528566
0.29457077 0.1461007 0.03602181 0.3131366 0.016776873 0.28549582 0.18716618 0.2412317
0.3112285 0.7417353 0.69006956 0.39510763 0.3167782 0.0767905 -0.06375248 0.43888852
1.2180774 0.16972108 0.15038104 0.05091522 0.5891108 0.08975147 -0.08520733 0.043335766
0.42330116 -0.12886117 0.24190749 0.25566387 0.14266203 0.07078648 0.30991235 0.022403952
0.17381036 -0.14429285 0.4167313 0.3423726 0.2274293 0.11781093 0.3120684 0.287898
0.27690053 0.20096509 0.20237404 0.9136351 3.299568 0.15350467 0.26514822 0.122116104
0.044149403 0.70741326 0.4190988 0.24271217 0.33686408 -0.16521826 0.2699066 0.5357691
-0.05416299 0.21941097 0.15090178 0.37145835 0.6204415 0.38007522 -0.37641132 0.88182944
0.050979026 0.17075153 0.18317214 0.37022653 -0.10263813 0.27239114 0.13415943 0.34582204
0.32370803 0.31880888 0.02336846 0.44494653 0.19470313 0.11293661 0.16190962 0.42141935
0.25854814 0.24979872 0.8938228 0.8182072 -0.18352842 0.5112938 0.046037924 0.4720179
0.59235907 0.09933249 0.06644186 -7.95655e-06 0.43927133 0.19857672 0.45931116 0.15505463
0.08853648 0.17168929 0.41349953 0.305094 0.108049296 0.2857683 0.07772597 0.18534167
0.31308118 0.26660845 0.2920818 0.07364908 0.58599025 -0.063302256 0.35101128 0.47388005
0.69845176 -0.009749014 0.28950003 0.05900893 0.06335905 -0.024274822 0.11640295 -0.26043352
0.28271174 0.28638884 0.2314362 -0.039628945 1.3453428 0.26431692 0.35659924 0.20061098
0.15747015 0.5318404 0.06974009 0.21445718 0.31141073 0.22109911 0.4361072 0.96894324
0.67464215 0.14858378 -0.12987566 0.26190612 0.33813837 0.09217509 0.31422287 -0.07402521
0.097643845 0.5303944 0.14571495 0.19261406 -0.07320453 0.27657783 0.5128482 0.034693852
0.1945439 0.2017379 -0.019560313 0.35024717 0.23609369 0.12904751 0.7809012 0.13707578
-0.11957088 0.10404768 0.15124999 0.17089084 0.056537952 0.65021884 0.58273673 -0.049550455
0.06281497 0.87648576 0.12559932 0.1532428 0.41102988 0.20030954 2.383928 -0.06661191

bn1.running_mean f4 [200]
00000000: 3001 1c3f fe0c 1740 78b1 a53e 5a9a 4f3f
00000010: 5cf2 633f 181c 053f 00c2 a440 aa26 273f
00000020: d735 783e 76e3 453f 32bb ac3e c24a 993f
00000030: 494b c13f 8262 453f 49cd 783f deb8 413f
00000040: 3e30 213f e364 263f bb21 633f e372 ef3f
00000050: d0f0 743e df6d 483f b3f9 1f40 c71e 443f
00000060: 688b 133f e570 353e 41db 843d 8772 b33f
00000070: 5e40 d63d 0849 013f 9fcc c53f 1405 c53e
00000080: fbfe 0540 2271 4940 a2ff ca3f 98e6 963f
00000090: 0709 263f 6f25 fc3e 0c78 883f ab23 843f
000000a0: f649 2c3f 865a b83e 5b7d 173e 3495 1540
000000b0: 681f e83f 98e6 903f 58b0 4a3f a6ea 443e
000000c0: cb03 9c3f c566 4d3f c139 5b3f 6640 7b3f
000000d0: 1986 923e 9752 203e 4473 b93e 4ad9 a53e
000000e0: f1ce ec3d 16e2 d53e c8c7 e43e a9f2 1540
000000f0: 8ad6 3840 e441 263f 89c7 d73f 536a 133e
00000100: f065 9a3f 21dd 0b3f d523 b03f 91ce d13f
00000110: 9171 e93f 863d 3e3e e738 5d3f fdea c53e
00000120: 73a8 3140 4ad7 f53f cfc7 c83f 0b1e a240
00000130: d0f2 fe3f b088 673f 8a12 bc3f 6d29 603f
00000140: 4567 813f d5d5 153b 436e 203f b86a 4a3f
00000150: eb02 0240 8862 7e3f 0a87 4f3f 5afb 363f
00000160: 11e6 a63f 1181 a93f 09f1 393f 0902 0a40
00000170: 5a2b 0a3e 1dfd 8e3f 5f9c a53e afac 1e3f
00000180: 4cdd a53f fce0 2b3f c4bc 843e 5acd 803f
00000190: 8911 dd3e 7752 4040 0567 823f 27b8 ac3f
000001a0: b4fd 983f 7449 8340 e1a1 3b40 7fd8 2a40
000001b0: dce6 6f3f 177d 733f 2469 ec3e 1bb5 1440
000001c0: 0a07 953f 5d02 c73f f0dd 3a3e bc53 7c39
000001d0: dd87 c440 0726 843f df62 3b40 a939 943f
000001e0: 073b 823e 6a9a bf3e ce88 ff3f efde 9c3f
000001f0: c171 1c3f 75d3 943f 7580 a23e 0ebf 523f
00000200: fd5f 3340 715f fa3d 126f b03f 7e79 573f
00000210: edb2 a53f ad93 a73f f7d3 da3f 4f23 d83f
00000220: d414 2140 d73e 313e 6966 5d3f b969 903f
00000230: 81e4 6540 e7b8 b63e f65b d13e d109 ce3f
00000240: d95b b33f 7b04 a240 5c08 0b3f 7f27 953f
00000250: 0569 7d3f d817 1140 8a3d a83f 2308 8c3e
00000260: 2f85 f33e ed09 0340 c0ec 973f 9e5d 673f
00000270: c07e a03e 5db4 4f3f 31a0 8e3f c048 2040
00000280: 1613 0340 b684 a73f 3fd5 653f e247 483f
00000290: 50b1 c33e 64ca 183f 1dff e33f ed12 133f
000002a0: f18c e63e 213c 243f 0f4c 063f 85aa 513f
000002b0: 8ecb 303f f607 5e3f 8b8c 813f e18c f53f
000002c0: a2cd b23f 19c5 f03e 4f21 933d 13fc dd3e
000002d0: d720 f73e 9530 823e 62bd 8340 acdd 0d3f
000002e0: 7274 473e 05f1 cb3d fe8c 103f c6bd 8e3f
000002f0: 7119 d53e c070 f33f cc40 603f 510d 0a3f
00000300: 744b c23e 79ca 8340 54d4 3c3e 222a 0f40
00000310: 1d19 f63f ebe4 fd3f 99d2 b83f c56e 9e3e
0.6093931 2.360168 0.3236196 0.81094897 0.89041686 0.5199599 5.1486816 0.6529337
0.24239288 0.773002 0.3373657 1.1975939 1.51011 0.77103436 0.9718824 0.7567271
0.62964237 0.6499769 0.88723344 1.8706936 0.23919988 0.7829265 2.4996154 0.7660946
0.5763459 0.17718847 0.06487132 1.4019326 0.10461496 0.5050206 1.545307 0.38480437
2.0936878 3.14753 1.5859263 1.1789122 0.64857525 0.4924731 1.0661635 1.0323385
0.67300355 0.36006564 0.14793913 2.3372316 1.8134584 1.1320372 0.7917533 0.19230136
1.2188658 0.8023494 0.85635 0.9814514 0.28617933 0.15656506 0.36220753 0.3239234
0.115629084 0.41774052 0.4468367 2.3429358 2.8880944 0.6494429 1.6857768 0.14396028
1.2062359 0.5463429 1.3760935 1.6391164 1.8237783 0.18578157 0.8641495 0.38655844
2.7759063 1.9206326 1.5685977 5.0661674 1.991785 0.90442944 1.4693158 0.8756321
1.010964 0.002286305 0.62668246 0.7906909 2.031428 0.99369097 0.8106543 0.7147728
1.3038961 1.3242513 0.72633415 2.1563742 0.134931 1.1170994 0.32345864 0.61982244
1.295816 0.67140174 0.25925267 1.0062668 0.4317744 3.0050333 1.0187689 1.3493699
1.1952424 4.1027164 2.9317553 2.6694639 0.9371164 0.95112747 0.46173966 2.3235538
1.1642773 1.5547596 0.18248725 0.00024063786 6.141585 1.0324105 2.9279096 1.1580096
0.2543566 0.37422496 1.9963624 1.2255534 0.61111075 1.1627032 0.3173863 0.82322776
2.8027337 0.12225235 1.3783896 0.8416976 1.2945229 1.3091942 1.7095937 1.6885775
2.5168962 0.17309128 0.8648439 1.1282264 3.5920718 0.35687944 0.40890473 1.6096746
1.4012405 5.063047 0.5430963 1.1652678 0.9898837 2.2670803 1.314378 0.27349958
0.4756255 2.0474808 1.1869125 0.90377223 0.31346703 0.8113459 1.1142637 2.5044403
2.04804 1.3087375 0.8977851 0.78234684 0.38221216 0.59683824 1.7812229 0.57450753
0.45029405 0.6415425 0.52459806 0.8190082 0.690606 0.867309 1.0121015 1.9183618
1.3969004 0.47025374 0.071840875 0.4335638 0.48267242 0.2542769 4.116868 0.5541637
0.19478014 0.0995808 0.56465137 1.1151664 0.41620973 1.9018784 0.8759887 0.5392657
0.3794819 4.118466 0.18440372 2.2369466 1.9226414 1.9835485 1.4439269 0.30943885

bn1.running_var f4 [200]
00000000: 270f 1840 930c ff40 7658 7e3f 4c38 1240
00000010: 387f 4140 e374 9a3f 8b45 f340 7967 1540
00000020: 7b3d 333f 460b 4440 bf52 813f 372d 9140
00000030: 1612 be40 fa57 e33f b2c7 6b40 668a 1b40
00000040: f543 4840 60df f13f 881d ff3f 9078 0c41
00000050: 0e3d 753f 1403 0b40 3e94 2641 63d2 1240
00000060: d93c e43f 37be de3e 6e20 1f3e d375 8540
00000070: 81ff a23e bcf8 b83f 76a1 9940 9ae9 b63f
00000080: b22f e040 8f71 c940 8bc6 9140 b83a 9740
00000090: 72fa 2340 c9ce cd3f 8ab2 6840 062f 4540
000000a0: 7f46 4c40 85d4 893f 24be 983e 50f1 ba40
000000b0: 8f9f 8840 012a 5d40 de71 3340 4efd 473f
000000c0: de51 9140 579c f53f 1777 1e40 f3a6 3940
000000d0: 9c6f 713f 81d1 093f fbc8 823f 0510 923f
000000e0: 324f 2e3e 03d2 903f 6339 983f f41b d440
000000f0: b123 0e41 6612 2c40 220b d740 3b8f a93e
00000100: adce 8a40 f158 f43f 6185 8440 a887 9f40
00000110: 5548 d140 5b86 383f 6295 4940 389f d33f
00000120: 7960 4241 4339 9e40 8544 8940 8900 2041
00000130: c27d 9f40 9ec7 3040 7b65 4e40 6b0b 4e40
00000140: 5c38 2a40 0697 943b 14db dd3f c09f 1040
00000150: 14cd 2641 a982 4040 38ca 1b40 316f f23f
00000160: b1c7 ee40 daf7 e840 0414 2940 16db ba40
00000170: 6f19 bf3e 4ef8 8640 6a36 663f 7ce6 c63f
00000180: d811 7a40 9825 d13f 90ed 503f 0d08 3c40
00000190: 5d63 c23f 1ae4 c740 b1ab 9840 cd6e 9540
000001a0: 01dd 6740 dacf 4040 efb0 6541 e60a 2741
000001b0: ffff 7240 9f77 0140 ae53 d13f 4a84 1f41
000001c0: 7a44 9540 2a12 9340 3288 f33e e5c5 4d3a
000001d0: e66d 1341 aa63 8240 46cf d840 b3dc 9c40
000001e0: 0b4c 8c3f a4bf 7c3f faab db40 e3e3 1440
000001f0: 6f6b c73f dcbd 7c40 e56e 843f 48b6 1540
00000200: a661 4f41 42d5 003f 5809 9140 d0e8 2d40
00000210: 7797 7640 30d8 3a40 0080 3440 3e15 af40
00000220: d03a eb40 541a 303f a893 3240 a630 9640
00000230: a02d ac40 dda2 a03f 60f2 b73f 1c81 6240
00000240: 3334 bd40 a222 af40 a5b1 e13f ef16 8d40
00000250: fd86 3c40 df4f 2640 b9f7 4340 7fe6 293f
00000260: b5f0 713f 4646 0341 7163 3f40 9bdd a840
00000270: 3b9a 293f 4cdb 0840 d52f 8040 8018 2b41
00000280: c463 1341 f35e 7f40 5e4d 2840 9e57 1840
00000290: 362c 783f 92fe 1740 8b93 8040 e56d c53f
000002a0: ce76 ad3f fe5a 0d40 c757 a83f e86a f33f
000002b0: 9f40 b43f fcaf 0240 6a3a 3f40 2b5f e640
000002c0: 54ec 7640 505d a13f 8e94 553e cb6e 873f
000002d0: b63d e53f 5757 3f3f d1d9 1941 89be ee3f
000002e0: 7be3 203f a155 bc3e d367 843f b8dd 8f40
000002f0: e28a a33f 2480 a540 ed8a 1140 b196 d83f
00000300: 0391 b23f a828 0341 24c3 123f 1b8e fa40
00000310: d281 8540 6eca bf40 4727 b640 f74d 9b3f
2.3759248 7.970285 0.9935373 2.284686 3.0233898 1.2066921 7.602239 2.3344405
0.70015687 3.063188 1.0103377 4.5367694 5.9397078 1.7761223 3.6840634 2.4303222
3.1291478 1.8896294 1.9930887 8.779434 0.9579629 2.1720629 10.411192 2.294091
1.7831069 0.43504497 0.15539715 4.170633 0.3183556 1.4450908 4.8009596 1.429004
7.005822 6.295112 4.555486 4.725918 2.562161 1.6078731 3.6358972 3.080995
3.1918027 1.0767981 0.29832566 5.841957 4.2694774 3.4556887 2.803825 0.7812089
4.5412436 1.9188336 2.4760187 2.9008148 0.9431093 0.538353 1.0217584 1.1411139
0.17022398 1.131409 1.1892513 6.6284122 8.883714 2.688623 6.720109 0.3311709
4.337729 1.9089643 4.1412816 4.9853096 6.5400796 0.7208001 3.1497426 1.6532965
12.148553 4.94449 4.289614 10.000131 4.9841013 2.7621837 3.2249439 3.219447
2.65969 0.004534605 1.7332482 2.2597504 10.425068 3.0079749 2.4342175 1.8940183
7.4618764 7.2802553 2.6418467 5.839244 0.37324092 4.2178106 0.8992678 1.5539088
3.907339 1.6339598 0.8161249 2.9379914 1.5186573 6.2465944 4.7709584 4.6697755
3.622864 3.0126863 14.355697 10.440161 3.7968748 2.022926 1.6353662 9.969797
4.664609 4.5959673 0.47564846 0.0007849618 9.214331 4.074666 6.775302 4.901941
1.0960706 0.9872992 6.864743 2.326409 1.5579661 3.949088 1.0346342 2.3392506
12.96134 0.50325406 4.5323906 2.7173347 3.8529947 2.919445 2.8203125 5.471343
7.3509293 0.68790174 2.7902622 4.6934385 5.3805695 1.2549702 1.4370842 3.5391302
5.912622 5.4729776 1.7632338 4.4090495 2.945739 2.598625 3.0619948 0.66367334
0.94507915 8.204657 2.9904444 5.2770514 0.6625096 2.1383848 4.005839 10.693481
9.211857 3.9901702 2.629722 2.3803477 0.9694246 2.3749127 4.0180106 1.5424162
1.3551881 2.2086787 1.3151788 1.9017 1.4082221 2.0419912 2.9879403 7.199117
3.8581743 1.2606602 0.2085745 1.0580686 1.7909458 0.74742645 9.615678 1.8651897
0.6284711 0.3678408 1.0344185 4.4958153 1.2776759 5.171892 2.2741044 1.6920987
1.3950504 8.197426 0.5732901 7.829847 4.172097 5.9934607 5.6922946 1.2133168
