checkpoint_critic.pth (torch_old, 368280 bytes, 13 tensors)

fc1.weight f4 [200, 33]
00000000: 3f22 9b3b d4b8 333c 7791 ab3d b7c6 093e
00000010: cb0f 513e 0b6f c63c 8470 4c3e ecca 56bc
00000020: 5773 95bd 903f c0bc e731 bd3c 2d5c 10bd
00000030: 51dd 623d e740 53bd 0427 36bd 5ae1 54bd
00000040: 4c4f e1bb 65e0 59be 92c2 a53d 4ae8 55bd
00000050: 38f8 e4ba 7d85 8bbd c700 843c bbd2 30bd
00000060: 6207 bdbc 0b3f 8c3d 98b3 cd3d 1697 fc3d
00000070: cb7a fa3c 6a99 63bd 8325 14be 44af e4bc
00000080: 9465 ba3d ce74 82bd 90b9 f43d a3a4 44bd
00000090: bc7a 453d 4b41 3bbb 1700 66be 5e0d e93c
000000a0: c1a4 03bd cad1 0abd 7ac9 80bd c74e e7bb
000000b0: a7e8 303d 98f2 b63b db77 cb3c 532d 5abd
000000c0: 6306 173e c289 593d 2d74 4cbd 8e2e a3bd
000000d0: 6ad1 0f3d 10a9 17bb 3f4a ce3c 3995 7b3a
000000e0: 53fe cebc 4676 10bd 9b97 c13b 49ad 873c
000000f0: bde1 373d 568f b0bd 6dcf 83bd 2fd5 27bd
00000100: d4e2 3f3d 0b84 3b3e d010 09bd f814 3c3d
00000110: d4c5 29bd 8640 8ebd 0ae9 2cbd 688f 813d
00000120: 1d82 4cbe 393c 753c caf3 883c b3e5 dabb
00000130: c584 c83b 0eab a83c 2c82 f5b8 499c b8bd
00000140: 9e23 063c df9a 463d a84c 193e a491 a83c
00000150: 14f3 b5b9 6486 4fbd 4310 80bc 1076 12bd
00000160: 91b2 31bc 83a9 f3bc 9e2b 3ebc cdf3 503d
00000170: 3e86 153e 30f5 3b3e 1e41 863d 8e10 753d
00000180: ce40 e6bd 86db 533d 7408 9b3e e586 0d3d
00000190: 0c79 d43b 2c8a 0fbd 8e05 d1bd ea9c 373d
000001a0: 2d08 133e ccc1 223d 53ac 8ebc 2e33 2abc
000001b0: e6df a5bc 4ed9 a63a 40af 0a3c f419 33ba
000001c0: 15c9 a7bc 9358 9cbc 048b 893c d7b3 a5bd
000001d0: fd29 05bd a46f 43be 21c7 773d 04b1 40ba
000001e0: 5a4e eebc b7c2 e6ba 732c c1bc 617e 17bb
000001f0: b040 0c3c 0511 2b3b 7c17 c33d bfcc 403d
00000200: e4ab 22bd 7cdf f3bd 284a 4dbc d88e 333f
00000210: ebc7 a83c 90b8 863d bee2 323e 793a f13c
00000220: fd88 013d d649 103e eb2b 83bd 0b71 3d3e
00000230: beb4 e4ba 8085 e33a bf45 04bd 5ca5 39bd
00000240: 7dc0 babd 881a 503d 85cb 13bd 9d23 c0bd
00000250: 079a a13d b27a 33bd 4562 683d a44b 3f3e
00000260: 1a63 453d 42e3 613d 0c0a 24bd 2a72 ea3d
00000270: 7cf8 41bc 0f6f 313d aaca 48bd ba6c f8bd
00000280: 710b f43c 13e9 6abd 9be2 a93d 9096 5b3c
00000290: 6f7c 423e c057 b2bb f007 d7bc 7d9d c6bd
000002a0: bbcf 0c3e 5a22 6a3e 8427 7cbd e34c 473e
000002b0: 1f1a 9fbd eeea 373d 3938 aabd fdac 643d
000002c0: f767 f8bc 1379 1dbc 2382 9d3d b0c5 99bd
000002d0: a6b8 d73c 4bf8 a23e 6753 92bd 91e9 be3c
000002e0: f7bc 34bd 95ba 6a3c 511d 9f3c 87f5 b7bd
000002f0: 3578 dc3c 24e4 fabc d5e8 f53c 818b 0dbd
00000300: 73b4 e23d 76de 223d a264 12bd f2db 11be
00000310: 587c cb3c f1b2 de3d 123f ca3c 9be5 563d
00000320: 19f5 8a3d 1010 a03e a3bd 8b3e c627 1a3e
00000330: 562b 96bd ec2b a53c 8b52 be3b e188 81bd
00000340: 98ce 153d c350 673a 2855 e13c 3a7f a5bd
00000350: bc5b 32bd c4af 90bd 6c9e 453e 915e 28bd
00000360: aabf 2e3e 8acd 65be aba9 0fbc 5228 cb3a
00000370: 3372 31bb cc32 49bc 1a82 093c 589f 15bc
00000380: e98f 2e3d e6a9 a03d 3e4a db3c 95e2 10bd
00000390: 283a 0dbd b0aa e3bb 2daa 9bbd 4e03 88bd
000003a0: 8f9c b63c 8b73 f63c 44ed db3d 5d6f 293e
000003b0: d9a3 833d 6d98 14be a5ec d1bc 2414 923c
000003c0: b5c0 96bb 7bb6 3dbc 9160 86bc 4c4e 4c3b
000003d0: 0a31 d5bc 3726 073c 25c0 2ebd 28a6 13bd
000003e0: 4503 23be 05b0 d13d c9d4 c03e 3c8d 823c
000003f0: 4f6b 02bc 7342 db3a a294 383d 0309 cf3c
0.004734307 0.010969359 0.083773546 0.1345471 0.20416181 0.024222871 0.19964796 -0.013109904
-0.0729739 -0.023467809 0.023095084 -0.035244156 0.055386845 -0.051575568 -0.044470802 -0.051972724
-0.006875908 -0.21277006 0.08093752 -0.05222348 -0.0017468994 -0.0681257 0.016113652 -0.04316972
-0.02307481 0.06847962 0.100440204 0.12333505 0.03057613 -0.05556623 -0.14467435 -0.027915604
0.09101406 -0.06369935 0.11949456 -0.048008572 0.04821275 -0.0028572853 -0.22460972 0.028448757
-0.032139543 -0.033891477 -0.062884286 -0.0070589515 0.043190625 0.0055831186 0.024837425 -0.05326588
0.1474853 0.05310989 -0.04991548 -0.07967864 0.035111822 -0.002314154 0.025181888 0.0009597126
-0.025267756 -0.035269044 0.0059079654 0.016562121 0.044893015 -0.08621089 -0.06436048 -0.040974792
0.04684718 0.18312089 -0.0334633 0.045918435 -0.04144843 -0.069459006 -0.04221443 0.06326181
-0.1997151 0.0149679715 0.01671781 -0.0066802143 0.006119343 0.020589378 -0.00011706757 -0.09014184
0.008187203 0.04848754 0.14970648 0.02057726 -0.00034704118 -0.050665274 -0.015632754 -0.035757124
-0.010845796 -0.029743915 -0.011607079 0.051013757 0.1460199 0.1835525 0.06555389 0.05983024
-0.11242829 0.051723026 0.30279887 0.034552474 0.0064841565 -0.03504388 -0.102061376 0.04482738
0.14358588 0.0397356 -0.017416155 -0.010388179 -0.020248365 0.0012729557 0.008464634 -0.00068321754
-0.020481626 -0.019085204 0.01678992 -0.08090942 -0.032510746 -0.19085556 0.06049264 -0.0007350596
-0.029090095 -0.0017605637 -0.023580765 -0.00231161 0.008560345 0.0026102674 0.09525964 0.04707026
-0.03971471 -0.11907861 -0.012529887 0.7013984 0.02060314 0.06578171 0.17469308 0.029446827
0.031624783 0.14090666 -0.06404861 0.18500154 -0.0017448885 0.0017358512 -0.032293078 -0.045323715
-0.091187455 0.050806552 -0.036082763 -0.09381793 0.078907065 -0.043818183 0.056734342 0.18681198
0.048190214 0.05514837 -0.040048644 0.11447556 -0.011839028 0.043318804 -0.0490214 -0.12130113
0.029790612 -0.057351183 0.08295175 0.013402596 0.1899278 -0.0054425895 -0.026248902 -0.09698007
0.13751118 0.22864667 -0.061561123 0.19462924 -0.07768654 0.04490178 -0.08311505 0.055829037
-0.030323012 -0.009611386 0.07690837 -0.07508409 0.026333164 0.31830058 -0.07144814 0.023304733
-0.044125523 0.014326711 0.019423159 -0.089823775 0.026912788 -0.030626364 0.03001825 -0.03455687
0.11069574 0.039762937 -0.035740502 -0.14244059 0.024839565 0.10873974 0.024688277 0.052465063
0.0678503 0.31262255 0.2729312 0.15054235 -0.073324844 0.020162545 0.0058081797 -0.06324936
0.036573976 0.0008823985 0.027506426 -0.08080907 -0.043544516 -0.07064775 0.19298714 -0.04110581
0.17065302 -0.22441688 -0.008768479 0.0015499687 -0.0027076125 -0.012280177 0.008392835 -0.009132229
0.042617712 0.078449056 0.0267688 -0.035372335 -0.03447929 -0.006947838 -0.07600818 -0.06641255
0.02229145 0.030084392 0.10738614 0.16546388 0.06427736 -0.14511271 -0.025625536 0.01783187
-0.004600609 -0.011579151 -0.016403468 0.0031174598 -0.02602436 0.008248857 -0.042663712 -0.03604713
-0.15919216 0.10238651 0.37662342 0.015936486 -0.007960155 0.0016728177 0.045063622 0.025272852

fc1.bias f4 [200]
00000000: 54f4 41be a274 3e3d f602 503c a519 f7bd
00000010: 86a2 d33d 82b8 85be a1bd febd 749e d7bd
00000020: de28 25be 305e 323d 35a5 ab3d 46cf 9dbd
00000030: dfba 26bc c7dc e1bd 7043 2cbe ee79 95be
00000040: 3a1a 69be 75f7 08be 5f40 10be 0130 e3bb
00000050: 13c9 79bc 7b10 ec3d db66 073d a2ef 78be
00000060: c572 973c 165c b0bd 367a 4ebe 7446 233e
00000070: 7781 02be efe6 253c 6c07 3ebe 445b 99be
00000080: 2ad3 de3d 8a04 aabd cebb 50be 3a1d 193b
00000090: ecc0 1b3e 340a 67be 07c7 d63c 4033 2dbe
000000a0: a217 a4bd 2969 76be 27d2 17bd b43c 8fbd
000000b0: 5fa6 1cbb 8d96 6b3d d9d5 023e 40a1 af3d
000000c0: 8a15 2ebe b09e 413d 2879 aebc 9506 1abc
000000d0: 84ad 9c3b 4dbb 5b3d 4e72 aebe 7732 bc3c
000000e0: b593 5d3b b465 31bd 1f70 b43d f4b7 b3bd
000000f0: 0a37 40be ea85 52be ec7a 10be 681d f0bd
00000100: e12f 5bbd 33c7 4ebe 5d7e 663c 957e 6cbe
00000110: 8e5e 263d 0d86 2a3d 14e9 8dbe 4099 90bd
00000120: 1487 353d 93d0 4fbc a4a0 2dbd 9adc 113e
00000130: 581f abbd b43c 58be 05ee 8b3c b5e7 eb3c
00000140: 939d 553d fb94 423d bf4f 87bd 215d e73b
00000150: 14e3 7c3d 71cb 733c f653 233d c729 4cbe
00000160: 1873 f7bd 079e 1bbe 4af7 40bd b2a9 42be
00000170: c6ab 28be 36d5 733e cddc b5bd fc22 00be
00000180: d2d8 8ebb 18db 3e3e 5c83 f83d 9976 33bd
00000190: 1ab9 3e3c 6919 ddbd 1471 b7bb bf92 12be
000001a0: 58e7 a03d 6d03 4e3d cd0e f93c 1445 90bd
000001b0: c069 043e 7ca5 4cbe b213 4e3d 1008 31be
000001c0: 52ac 3d3d d491 d53d 792d 10be d22b c23c
000001d0: 4eb8 43be 58ee 56be 2d58 2fbe 63bc 8bbe
000001e0: 3f76 19be f1e8 05be 8e4d d7bc 7db5 a0be
000001f0: 798f ce3c f8bc ef3d 6bf9 ec3d ad6f e6bc
00000200: 39c5 35be 1b4c 043e 0f8d ed3d 65cf 963d
00000210: 8eba ca3d 0b6f 0cbe 358f 00bc b54a 5fbe
00000220: a405 c0bc 0601 a3bd bf89 d1bd 0995 01be
00000230: 3ac0 f6bd 69e5 753d a1da 51be 1fb2 133e
00000240: 9d08 25be e375 f4bd e6ad 853d 5abe 2f3a
00000250: 9619 39bd ca2b 31bd c9bf febd aeea b4bd
00000260: 4e7a 31be 785b e83d 8e1a 393c 4fcf 263d
00000270: 08bf cdbd 65a1 213e 2a4a 2638 4885 c2bd
00000280: 96bf bdbd 8d62 73bc 37b0 86bd cb2c 30bb
00000290: 834e 10bd 4e7d 23be 90cb 87bd 6246 003c
000002a0: 2f87 6abe 9255 103d 6221 d03d 737e fc3c
000002b0: 4949 823c 35dd 80bb 0323 2bbe e30d e13d
000002c0: 751d bdbd dcba 07be 17a1 653d a072 44be
000002d0: 34a3 853c 1070 06be 78a8 04be c6ba 23be
000002e0: 6795 3fbd 50c3 f7bd 3b4d ccbd 64c3 45bc
000002f0: 8991 96bd f170 54bd 296a b2bd 42e0 9c3d
00000300: c7aa 3cbe 2f5e a5bd cb9c 1dbe 275a 7abc
00000310: 44a5 d7bd cc49 14be 1b1a 193e 3865 013e
-0.1894086 0.04649795 0.012696018 -0.12065438 0.10333733 -0.2611733 -0.124385126 -0.105282694
-0.16128871 0.043546855 0.0838112 -0.0770555 -0.0101763895 -0.11028438 -0.168226 -0.29194587
-0.22763911 -0.13375647 -0.14087056 -0.0069332127 -0.015245694 0.11526581 0.033057075 -0.24310163
0.018487344 -0.08611314 -0.20163807 0.15944844 -0.127447 0.01012586 -0.18557519 -0.29952443
0.1088012 -0.08301647 -0.20384142 0.0023363368 0.15210313 -0.22562486 0.02621795 -0.16914082
-0.0801232 -0.24063553 -0.03706565 -0.06994 -0.0023902876 0.057516623 0.12776889 0.08575678
-0.17000404 0.047270477 -0.021298006 -0.009400983 0.004781427 0.05364542 -0.34071583 0.022973282
0.0033809964 -0.043309882 0.08810448 -0.08775321 -0.18770996 -0.20558897 -0.14109391 -0.11724359
-0.053512458 -0.20193176 0.014068213 -0.23095162 0.040617518 0.041631747 -0.27716887 -0.0706048
0.044318274 -0.012684005 -0.042389527 0.14244309 -0.08355588 -0.21116906 0.01708127 0.02879701
0.052152228 0.04750536 -0.06607007 0.0070606624 0.061739996 0.014880047 0.039874993 -0.19937812
-0.12082499 -0.15197001 -0.047110833 -0.19010046 -0.16471776 0.23811802 -0.08880005 -0.12513345
-0.004359343 0.18638265 0.1213443 -0.043814275 0.011640811 -0.10795862 -0.0055981968 -0.14313792
0.07856625 0.050296236 0.030402565 -0.070444256 0.12930965 -0.19985002 0.05031175 -0.17288232
0.046306916 0.10428205 -0.14079846 0.023702536 -0.19113275 -0.20989358 -0.1712348 -0.27292165
-0.14986514 -0.13077141 -0.026282098 -0.31388465 0.025214897 0.11705965 0.1157101 -0.028129423
-0.17751016 0.12919657 0.115991704 0.07363776 0.09898864 -0.13714235 -0.007846643 -0.21805842
-0.02344019 -0.079591796 -0.10231351 -0.12654509 -0.12048383 0.060033236 -0.20493557 0.14423417
-0.16116567 -0.119365476 0.06527309 0.0006704085 -0.045190416 -0.04325465 -0.12438924 -0.08833824
-0.17331812 0.11345571 0.011297835 0.04072505 -0.10046202 0.15784223 3.9646555e-05 -0.09498078
-0.09265058 -0.014855039 -0.06576579 -0.0026882167 -0.035231125 -0.15965769 -0.06630623 0.007829281
-0.22903131 0.035237856 0.10162617 0.030822014 0.015904086 -0.00393262 -0.16712575 0.10988977
-0.09234134 -0.13254875 0.05606183 -0.19184351 0.016313173 -0.13128686 -0.1295489 -0.15989217
-0.04677334 -0.120978 -0.09975668 -0.012070511 -0.073519774 -0.05186552 -0.08711655 0.07659961
-0.18424521 -0.08074605 -0.15391843 -0.015280283 -0.10529569 -0.14481276 0.14951365 0.12636268

fc2.weight f4 [400, 204]
00000000: e6b5 58bd aa86 2ebc fba6 58bc d754 73bd
00000010: 8016 1ebd e7b3 8f3c 285a 4fbd 4aa3 0cbd
00000020: d61f 123d 85a2 02bd b26b 5b3b 6421 65bd
00000030: 3371 cd3d 57dd b73d aa6e 583d 79e0 2a3d
00000040: 985e ba3c 1e79 b6bd 2af6 9cbb c624 02be
00000050: 800f ce3a ee4c ec3d def5 24bd b290 733b
00000060: a185 3ebb 0a3a a43d 8d00 ca3d 7b29 8e3c
00000070: 2cbf 86bc ca7c 5bbd f736 123d 415e c1bd
00000080: 3b2e 8ebd 3c74 e33c bd6a 41bd 5701 acbd
00000090: 7eb6 393d 6527 adbc 0625 eb3c 4797 06bd
000000a0: 19fb 153d 56d7 91bd 4c1f 843d cadf 8dbc
000000b0: 33f5 8f3d 46a1 9d3d ddaf cbbc 1b1a 06bc
000000c0: aaaf a93d dfa3 bfbc 556e 1e3d 39b4 0c3d
000000d0: 1729 743c 71e9 60bc 1c1d 863d 900c 1c3b
000000e0: d071 dabd 6c2c a33c 7225 9e3c 392f 37bd
000000f0: aa40 193b 6470 5abd d891 a23b 6335 f2bb
00000100: 0a24 82bd 77f6 9fbc ccee c13c c844 02be
00000110: d821 4abd df9b a7bd 5602 0cbd 1f1e 223d
00000120: 24d9 753d 41e2 44be 67a7 84bd 4146 96bc
00000130: ac3b d8bb 3dd6 d33c 9d72 b539 ed9e a8bc
00000140: 8421 6f3b e239 e73c 4d4d 3e3d fb9e b63c
00000150: af5f cc3d 3f82 cabc e7d1 37be 167c 873d
00000160: 6906 9dbc 341d 71bc 5fb7 15bb ee22 28bd
00000170: fe71 67bd 467c 093c e63a 22be dbcd aebc
00000180: 73e3 f5ba af93 4e3d 634e bdbd e350 3cbd
00000190: f658 84bc 8df1 10be 58b3 863d 79bb 04be
000001a0: d13e 3ebd 5f87 0cbd 5a8b 6dbc fea9 f73c
000001b0: 5d19 88bd 4c33 5e3d fae5 1bbb 0382 d2bd
000001c0: 82f4 683d b64b 88bc 05ac 3bbd f2b0 f63c
000001d0: 2ffd d1bd 236d fc3b 7d3f 1bbe 312c 023d
000001e0: bf8b 0e3d 4a4e d6bb dc33 d8bd fe7f b0b8
000001f0: 0d33 e13d ff18 373c 0621 8fbd a799 9bbc
00000200: 388c 873d 9c88 c73d cf4a b43b a341 7a3d
00000210: dff7 37bd 26a1 3bbd be78 55bd 4427 f0bc
00000220: ace1 c23d 74b7 96bd 958d 2cbd 1472 12bd
00000230: 54d9 98bd 26b7 99bc 0861 7e3d e372 0dbd
00000240: c114 52bd 5b7f 1bbd 5806 ef3d d3c0 acba
00000250: f68b 0539 c3e7 843d cf08 833d 9845 7abd
00000260: f028 62bd 365f 1f3d 76fe e1bc 1736 a73a
00000270: 7572 663d f53f 1fbd 50e2 373d 5734 a43c
00000280: c7ea ce3c 1def 1b3c 0932 403d eba5 8f3d
00000290: 4e29 dcbc 9471 52bd 8209 8a3d 0a97 363d
000002a0: 759d d0bb 324b 5ebd a4ca 05bc 6cc7 1fbe
000002b0: 6080 67bb 1132 73bd 09ea 87bd 3393 01bd
000002c0: 0046 663c cee1 513c 153f e3bd c0e9 dabc
000002d0: 855a f8bc 5f7b a5bc 0531 0e3d 3e33 ae3d
000002e0: 9408 b8bb 5407 29be ed3c 80bb 287c 6ebd
000002f0: fb7f 44bd 5057 04bd 71d2 973d efdb f8bc
00000300: 5d23 febc 13e6 a8bc e15f 10be 40c6 aa3d
00000310: 94cd 76bc 6a72 3cbc 6a36 573d ef7f 7eba
00000320: 7068 f93b c3b0 093c a464 ba3d 2a7e 8bbc
00000330: 3e5f ccbc 6e24 01be ffc8 9abd 1214 653d
00000340: 0f1c b23c bf5b 183d 14d1 41bd 77c9 c9bc
00000350: 1db7 133d 52ed 2c3d 73c6 8dbc a803 3ebd
00000360: 6b10 9abc 9cd2 37bc 574c f8bd 9f5c c43d
00000370: f851 e5bc af71 a6bd 69bc 4cbd 5908 92bd
00000380: afc9 563c fb8a 38be 6ac0 bd3a b867 ffbc
00000390: a23a a2bd 1098 083d 5a74 a0bc 9846 b5b9
000003a0: 2fa4 2e3d 8b90 2ebd 4397 80bc 0039 1c3d
000003b0: bfc1 43bd 0b76 663d 3652 183d 57f9 e1bd
000003c0: 2f2f bfbc 7e13 20bc 3be7 62bc 7155 e5bc
000003d0: 8187 5b3d e594 9d3d 1456 893d a1ed 73be
000003e0: ad8a 50bc 36c6 d13d c9f7 393d ad6f 353d
000003f0: 05d8 613c 3a65 0d3c 3df2 2ebb e686 45bd
-0.052907847 -0.010652224 -0.013223405 -0.05940708 -0.038595676 0.017541839 -0.05062309 -0.034335412
0.035674892 -0.031893272 0.003348094 -0.055940047 0.10031357 0.08977764 0.052839912 0.04171798
0.022750184 -0.0890982 -0.004790087 -0.1270934 0.0015721172 0.11538111 -0.04027354 0.0037165103
-0.0029071348 0.080188826 0.09863386 0.017353764 -0.01644858 -0.053585805 0.03569695 -0.09441806
-0.069424115 0.027765386 -0.047220934 -0.08398693 0.045340054 -0.021136949 0.028704178 -0.032859113
0.03661642 -0.0712115 0.06451282 -0.017318625 0.0702919 0.07696776 -0.024864132 -0.008184935
0.082854584 -0.02339357 0.03867944 0.03435156 0.014902375 -0.013727532 0.06548521 0.0023811199
-0.10666239 0.019918643 0.019304965 -0.04472277 0.002338449 -0.05332984 0.0049612336 -0.007391618
-0.0635453 -0.019526703 0.023673438 -0.1272155 -0.049348682 -0.08184027 -0.034181915 0.039579507
0.060021535 -0.19226934 -0.06477242 -0.018344047 -0.0065989103 0.025858993 0.00034608404 -0.020583594
0.0036488483 0.028225843 0.04646044 0.022292605 0.09979188 -0.02472031 -0.17951165 0.066154644
-0.019168096 -0.014716435 -0.0022844893 -0.041048937 -0.056505196 0.0083914455 -0.1584278 -0.021338394
-0.0018759802 0.05043381 -0.09243467 -0.045975577 -0.016155701 -0.14154644 0.06577176 -0.1296214
-0.046446625 -0.034308787 -0.014498556 0.030232426 -0.06645463 0.05424814 -0.00237882 -0.10278704
0.056873806 -0.016637664 -0.045818347 0.030113671 -0.10253369 0.00770344 -0.15160938 0.031780425
0.03480124 -0.0065400945 -0.105567664 -8.4161744e-05 0.10996065 0.011175393 -0.069887206 -0.018994166
0.066185415 0.09742853 0.005502082 0.061097752 -0.044914123 -0.04580798 -0.0521171 -0.029315598
0.095157 -0.0735921 -0.04212721 -0.035753325 -0.07463327 -0.01876409 0.062104255 -0.034533393
-0.051289324 -0.037963253 0.11671132 -0.0013180025 0.00012736008 0.064895175 0.063981645 -0.061101526
-0.055214822 0.03890916 -0.027587157 0.0012757209 0.0562615 -0.038879354 0.044893563 0.020044489
0.025258435 0.009517458 0.046922717 0.07014068 -0.026875164 -0.051377848 0.06740095 0.044577636
-0.0063664266 -0.05427093 -0.008165989 -0.15603417 -0.003532432 -0.05937392 -0.066364355 -0.03163452
0.014054775 0.012810184 -0.11096016 -0.026722789 -0.0303166 -0.02020043 0.034714717 0.085058674
-0.005616257 -0.16506702 -0.003913513 -0.058223873 -0.047973614 -0.03230983 0.074131854 -0.03037831
-0.031022722 -0.02061752 -0.14099075 0.083385944 -0.015063662 -0.011501888 0.052542128 -0.00097083946
0.007611327 0.00840396 0.09101227 -0.017027933 -0.024947759 -0.12611553 -0.07557868 0.055927344
0.021741895 0.03719687 -0.047318533 -0.024632199 0.036063302 0.042218514 -0.017306542 -0.046390206
-0.018806657 -0.011219647 -0.12123936 0.095879786 -0.027993187 -0.08127152 -0.04998437 -0.071304984
0.013109609 -0.18021767 0.00144769 -0.031177387 -0.079213396 0.033348143 -0.01958673 -0.00034575607
0.042637046 -0.042618316 -0.015697127 0.038140297 -0.047792193 0.05626492 0.037187777 -0.11033886
-0.023337929 -0.009770272 -0.013849075 -0.027994843 0.053596023 0.07694415 0.06705871 -0.23821117
-0.012728375 0.10242884 0.045402322 0.044295955 0.013784413 0.008630091 -0.0026694678 -0.048224352

fc2.bias f4 [400]
00000000: 3fe2 0dbe 7653 833c d548 d9bd 0298 23be
00000010: 248e dbbc 9839 173d 99d5 07bd a584 b63d
00000020: 6db5 79bc ed38 4e3d 39f2 e9bd 0d44 8cbd
00000030: ef6d 57bd 922c d83d 9237 1cbe 2c37 cdbb
00000040: dc8e b63d d7ad a53c d8b0 0b3e ee7a 38bd
00000050: dc65 bbbd b66e 06be e345 ecbb 5589 b5bd
00000060: cad1 5ebd a362 8bbc 5240 3bbd 6ccb ea3d
00000070: 4e83 ebbd c985 b2bd ed4c 23bd 6470 163e
00000080: f74b d5bd e895 0cbe e24c 2dbe 6b0e a73c
00000090: e9de 013d 7b85 013e e2bc 39bd 98b1 43bd
000000a0: e531 93bd 22dc d7bd d883 48bd ce4b 22bd
000000b0: c82d 96bd 4576 c93d 3a9a e1bd 013f 00bc
000000c0: 2457 2a3d 17fb cabc 13f8 14bd 5b42 d2bd
000000d0: aa0d acbd 013a 2ebe efc0 1dbd c7c8 48be
000000e0: c04a 11be da44 87bb 4eac c4bd 1881 6c3c
000000f0: 3a9c bf3c 9695 42be 379e 22be da19 fbbd
00000100: 4848 10bd 43df d6bb 528c 1f3d 48b3 13be
00000110: 2dba aabc 4e55 6e3c ec72 1abe 6138 603c
00000120: 57ae c1bd e2ce 03be 2041 8dbd 4221 3cba
00000130: f4ee 41be 5a7b 553d 9fcb 2bbd b438 823d
00000140: 7be2 4bbe f3c8 c53d 9114 86bd 088f 5fbc
00000150: 8ea2 003e 2371 f9bd cf37 92bd 5528 f43d
00000160: f7f3 4cbd 0c99 983d 74c9 e3bd e6df 913c
00000170: ef36 dfbd f0d9 d03d b0d3 373d 1096 1bbd
00000180: cd31 32bd 06be 793c a6ea 093d d869 c1bd
00000190: df66 82bd 137e 5fbe ae64 743c 7f22 3ebe
000001a0: 3d60 e43d c4c7 ed3c 2ddb a7bd 3a66 55be
000001b0: fd79 453e d0c6 2e3d 2165 c7bc 6c4f 32be
000001c0: 580a 92bd 2708 36bd fb51 b53d ced8 5bbc
000001d0: 9aec 80bd ef59 3dbd 6df1 57bd b11d fabc
000001e0: 0e82 2bbe 0b71 563c e70d 01be 1d87 5abe
000001f0: a6f6 b33d e471 b7bb dc9d a03d 6110 61be
00000200: b150 a53d 2fbf 15be 177a 0abe 01f3 12bd
00000210: 246e e2bd 9218 2cbe 8e7c d3bd f0f7 91bd
00000220: d35b 29bc fead f23d b653 cbbd b759 cfbd
00000230: fafb ba3d c102 443c 81c9 333c b7d8 ddbd
00000240: d445 ab3d eb96 3d3d cf26 c13d 7e89 e1bd
00000250: e8d0 47be 6e1c bfbd 3d81 0e3d 8148 f0b9
00000260: b893 9abd 228c f0bd 2d94 693c c3ab 04be
00000270: 3552 46be 1110 0fbe 61e6 8bbd 4d18 633d
00000280: e7d1 b3bd f1fc 063e b7f8 bbbd 82cd 523d
00000290: a7e1 2d3d 5527 fb3b e610 adbd 565e 983d
000002a0: e57d d03d 416f dcbc 5e6b 80bd 8fdb 0d3e
000002b0: 8bd1 04be 90af eb3d d791 2a3c 7cc3 a23d
000002c0: f009 0abe 6e06 07be a9ad 2abe 41b2 cdbc
000002d0: a714 223d 3524 ba3d 089c 213c 412b 3a3c
000002e0: 14c4 89bd 5e84 cabd 7bb6 3e3d e210 a6bd
000002f0: e3b9 453d 8a6d bcbc ee7d 5a3c e83b b53d
00000300: 22fa 2a3d 6d8b c33d 21ed 003e 2dd4 4fbe
00000310: 0d4a 37be ee6d 72bd d74b 1cbe 6f1e 5ebc
00000320: 92b2 1b3d 999e 45bd d84f 27bd 5595 05be
00000330: eb7c 1d3e 61a1 17be 642c 9dbd e040 a3bd
00000340: a55f e83c c463 df3c 1905 c2bc ecb1 08bd
00000350: 39a4 14be ed76 61be 36d9 3fbe 003d 90bd
00000360: e763 12be e7bd a7bd 31d1 1ebe f426 fd3d
00000370: ac7d 1abe 9316 52be 75ce 5e3d 4b4d 13be
00000380: d2b0 d23d f741 b93d 88f8 47be 5b73 29be
00000390: 5e95 82bd c1f2 1e3e 65dc 3abe 287b 52be
000003a0: 6049 7f3d 881f 9b3d ae05 46bd 4dd1 113d
000003b0: bb38 09be 40f1 6bbc 3618 ff3d 2082 f9bd
000003c0: 3b56 9e3d e029 08be 10bd e1bc e0db f8bd
000003d0: 7b3c 46bc 6aec 05be 1641 23be 2950 813d
000003e0: a6bd 97bd 7d9d 953d a02a 0fbe 5b51 07bd
000003f0: d74a 0fbe eef6 3bbe bba6 08be 2c1c b43c
-0.13855837 0.016031008 -0.10609595 -0.15975955 -0.026801176 0.03692016 -0.033162687 0.08912019
-0.015241009 0.050347257 -0.114231534 -0.06848917 -0.052595075 0.10555376 -0.15255573 -0.0062626805
0.08913967 0.020224495 0.1364168 -0.04503911 -0.091502875 -0.1312817 -0.0072104796 -0.08864085
-0.05439929 -0.017014807 -0.045715638 0.11464581 -0.11499654 -0.08716924 -0.039868284 0.14691311
-0.1041488 -0.1372906 -0.1692386 0.020392617 0.031706724 0.12648575 -0.04534615 -0.04777679
-0.07187251 -0.10540034 -0.04895386 -0.039623074 -0.07332951 0.09837011 -0.110157445 -0.007827521
0.04158701 -0.024777932 -0.036369395 -0.102665626 -0.08401044 -0.17014314 -0.038514074 -0.1960784
-0.14188671 -0.004128081 -0.09603177 0.014435075 0.023389924 -0.19002375 -0.15880667 -0.1226079
-0.035225183 -0.0065573766 0.03895218 -0.14423859 -0.020840729 0.014546705 -0.15082902 0.013685317
-0.09457081 -0.12871888 -0.06897187 -0.00071765867 -0.1893881 0.05211959 -0.041942235 0.063584715
-0.19910614 0.09657469 -0.065468915 -0.013644941 0.1256201 -0.12179782 -0.07139551 0.11921755
-0.05003735 0.074510664 -0.111224085 0.017806958 -0.108991496 0.10197818 0.044879615 -0.037984908
-0.043504525 0.015243059 0.033671044 -0.09444016 -0.06367277 -0.21825437 0.014916582 -0.18567847
0.111511685 0.02902592 -0.08196101 -0.20839778 0.19284816 0.04267007 -0.024340214 -0.1741311
-0.07130879 -0.04444137 0.08853527 -0.0134183895 -0.06295128 -0.046228345 -0.052720476 -0.030531736
-0.1674883 0.013088475 -0.1260296 -0.21340604 0.08787279 -0.0055982936 0.07842609 -0.21978904
0.08072031 -0.14623712 -0.13523136 -0.035876278 -0.11056164 -0.16806248 -0.10326491 -0.071273685
-0.010336834 0.118495926 -0.09928076 -0.101245336 0.09130092 0.011963547 0.010973335 -0.10832351
0.08362928 0.046286505 0.0943123 -0.11012553 -0.19513285 -0.093315944 0.03479122 -0.00045830387
-0.07547706 -0.11745478 0.014256519 -0.12956147 -0.19367297 -0.13970973 -0.06831051 0.055443097
-0.0878027 0.13182427 -0.09178298 0.05146552 0.042451527 0.007664601 -0.08450489 0.07439868
0.101802625 -0.026908519 -0.06270479 0.13853286 -0.1297056 0.11508095 0.0104107475 0.07947442
-0.13480353 -0.13186046 -0.16667809 -0.025109412 0.039570477 0.09088937 0.009863861 0.011362852
-0.06726852 -0.09888528 0.046560746 -0.08108689 0.04827298 -0.023001451 0.013335688 0.08849317
0.04174245 0.09548078 0.12590457 -0.20295782 -0.17899342 -0.05918687 -0.15263306 -0.013557061
0.038012095 -0.048246954 -0.04084763 -0.13045247 0.15379684 -0.14807655 -0.076744825 -0.07971358
0.02836592 0.027269252 -0.023684071 -0.033372805 -0.14515771 -0.22018023 -0.18735203 -0.07042885
-0.14295922 -0.08190518 -0.15509488 0.12360945 -0.15087003 -0.20516424 0.05439611 -0.14384954
0.10287632 0.09045785 -0.19528401 -0.16547911 -0.06376146 0.15522291 -0.18248136 -0.20554793
0.062325835 0.075743735 -0.04834526 0.035599995 -0.13400547 -0.01440078 0.1245579 -0.121830225
0.07731291 -0.13297224 -0.027555972 -0.12151313 -0.012099381 -0.13078466 -0.15942797 0.063141175
-0.074092194 0.07305429 -0.13981104 -0.03303657 -0.13993393 -0.18355915 -0.13344853 0.02198609

fc3.weight f4 [1, 400]
00000000: d817 e9bc 232b 173d 6af5 50bd e068 34bd
00000010: bbc8 4b3d 758e ab3c 89ad c63c 3065 eb3c
00000020: c50f 133d 1856 823c d792 83bd 63f9 1c3d
00000030: 609a 08bd 913f c63c f13a d8bc fc17 0f3d
00000040: d03e fc3c 68a0 ee3c cb08 ca3c dfcf 42bd
00000050: e122 f2bc 5c1b 67bd 9c10 f13c 7274 4f3d
00000060: ed0c 0ebd 6f62 05bd e03c 173d 29fc d63c
00000070: 2f1f 63bd 6a5c 0ebd c20f e2bc e5bc a73c
00000080: 75fb 64bd a02c 66bd adcb c5bc 81bc 103d
00000090: e613 253d a842 c23c 0e02 c7bc 6e9e 00bd
000000a0: ff5a 5a3d d450 6e3d 8b4e edbc f7ac 0dbd
000000b0: 6220 c3bc aaa7 ac3c 2d5f 97bd 40b8 1b3d
000000c0: 3d22 163d dce4 4b3d fe6f 823d 5bca 953d
000000d0: 0d1f bcbc 263e e1bc 7abb f9bc 2392 78bd
000000e0: 720c 51bd ba15 4d3d 2877 39bd e65d 5f3d
000000f0: b4c3 153d 468c 4cbd 0ea5 33bd 1d4b 65bd
00000100: 318d 7e3d 35a7 013d 5dd4 a73c 8bae dcbc
00000110: 2f52 f23c 533d 253d afd7 e33d f1ce 073d
00000120: 130b 52bd 3330 0abd 6b58 debc 9aea 1e3d
00000130: 87a4 4cbd 59cd 293d db13 1e3d 7853 ff3c
00000140: 196f dabd b428 233d 7525 a9bc a726 5e3d
00000150: b9ca e03c 0631 21bd 50ae b8bc 33b1 d43c
00000160: 9747 933c 4a91 e33c 0d6a 02bd b83e 463d
00000170: 9757 24bd a02b e13c e65f 8d3c aa43 483d
00000180: 9ce9 423d 841b 003d 7279 c23c e62d 91bc
00000190: 9a7d 3e3d cabd b3bd dbb0 133d e329 80bd
000001a0: d91f 273d f382 dc3c 5e36 4a3d 6f1d 7dbd
000001b0: fcdf 063d 92a6 053d 5aef ca3c 05a6 a5bd
000001c0: 7ff3 e4bc 839a 4bbd b783 e63c 09e9 073d
000001d0: 8bcd 2f3d 2b77 2a3d fa82 55bc e73d a2bc
000001e0: c2e1 75bd 9130 053d 01ae a5bd b8f7 5ebd
000001f0: fa37 c73c f307 2e3d 6bb3 b83c b58e 10be
00000200: 2126 d53c bc8e 53bd 76ca 82bd 7aa6 f93c
00000210: e5b9 73bd aea3 2ebd e33d 1bbd ad11 083d
00000220: 53bb c33c 6bdc f43c e947 2cbd ecc5 c5bc
00000230: 7d6d 363d ee02 e93c ea47 df3c 0e55 0fbd
00000240: ff74 233d 2956 773c dca3 003d 8550 61bd
00000250: bac1 95bd ae77 38bd ae66 073d 10c3 0d3d
00000260: 8b19 0ebd a76e 00bd 8974 323d d951 a6bd
00000270: 356c ecbc 6d62 653d f56b 16bd 9711 243d
00000280: 9383 bbbc 9070 ad3c bd3d 1cbd 3f9e c13c
00000290: 283c 053d 640d 013d 4b1b 08bd 27e6 ef3c
000002a0: 3ba1 0c3d 15d7 433d 1c29 31bd 219d 743c
000002b0: e555 a6bc 7095 f13c aa70 943c 099e f53c
000002c0: d8dc 8fbd 383e 5bbd 3a5d 2ebd 3a6e 863d
000002d0: 4b3b f53c 1815 d63c f8d2 4c3d 7361 0d3d
000002e0: 3a5d bc3c bcf2 743d 7c98 f93c bafe cbbc
000002f0: 1966 d73c 76cc 3f3d 63d1 b93c be63 253d
00000300: c9aa 0d3d 3632 193d 0976 d33c 47a2 e43d
00000310: 89fd 03be 6710 d6bc deff 56bd 829c da3c
00000320: f841 453d 408b 90bc 9018 593d ecfb 05bd
00000330: 2cd3 c33c b29a 03bd 73a3 1ebd 65e3 973d
00000340: bd8d 0b3d 4f6f 303d cd6f 123d f87f 1f3d
00000350: 620d 95bd ea66 2dbd c837 87bd 73c3 06bd
00000360: 0b33 51bd 6950 c83c 0b68 d0bd 4f77 263d
00000370: 46b9 11bd dba5 9abd 733a 893c 5d44 7d3d
00000380: 401f 013d 713e 083d cc07 b2bd f911 6bbd
00000390: 5aa3 f5bc 8f09 a03c ba09 4bbd a61b d9bd
000003a0: d5a2 093d bb01 893c 0465 3dbd db33 d13c
000003b0: c6e5 22bd a980 c33c 58f3 2a3d ddd6 7ebd
000003c0: 8341 0a3d 7d76 7abd 902d b8bc 6015 67bd
000003d0: 3010 1b3d a34d 8cbc 8137 52bd a7db b23c
000003e0: b375 e3bc f98d bf3c 3941 c0bd 42c7 1c3d
000003f0: e624 9ebd 7418 6fbd e98e 1e3d 3654 d43c
-0.028453752 0.036906373 -0.051015295 -0.04404533 0.04975198 0.020941952 0.02425267 0.028734773
0.03590371 0.015910193 -0.06424492 0.03832377 -0.03335035 0.024200233 -0.026395293 0.034934983
0.03079167 0.029129222 0.024662396 -0.047561523 -0.029557647 -0.056422576 0.029426865 0.05064816
-0.034680296 -0.032564577 0.03692329 0.026243286 -0.05544966 -0.0347561 -0.027595405 0.020475814
-0.05590387 -0.0561949 -0.024144972 0.03533602 0.04030218 0.023713425 -0.024292972 -0.03140109
0.053309437 0.058182552 -0.028968116 -0.03458878 -0.023819152 0.021076042 -0.073912 0.03801751
0.036653746 0.049778804 0.06369017 0.07313987 -0.022964025 -0.027495455 -0.030484904 -0.06068624
-0.05103726 0.05006955 -0.045279652 0.054532908 0.03656359 -0.049938463 -0.04385858 -0.055979837
0.06214637 0.0316536 0.020487005 -0.026938697 0.029580204 0.040341686 0.11125123 0.03315634
-0.051280092 -0.033737373 -0.02714177 0.038797952 -0.049961593 0.0414556 0.038593154 0.03116773
-0.106657214 0.03983374 -0.020647744 0.05423608 0.027440416 -0.039353393 -0.022544056 0.025963401
0.017978473 0.02777924 -0.03183942 0.048399657 -0.040122595 0.027486622 0.017257642 0.048892654
0.04758607 0.03127624 0.02373955 -0.017722081 0.0465065 -0.08776434 0.036057334 -0.06257989
0.040801857 0.02691791 0.049368255 -0.06179565 0.032928452 0.032629557 0.024772335 -0.08088306
-0.02794814 -0.0497079 0.028138978 0.033181224 0.04292063 0.041617554 -0.0130317155 -0.019804908
-0.060029753 0.03251702 -0.08089829 -0.05443546 0.024318684 0.04248805 0.02254649 -0.14116938
0.026019158 -0.051649794 -0.063862726 0.03047489 -0.059503455 -0.042636566 -0.037900817 0.033219982
0.023893034 0.02989026 -0.042060766 -0.024142228 0.04453801 0.02844378 0.027255971 -0.034993224
0.039906498 0.015096226 0.03140627 -0.05500843 -0.07312341 -0.04503601 0.033056907 0.034609854
-0.03469233 -0.031355526 0.043568168 -0.0812108 -0.02886019 0.05600207 -0.03672405 0.040055837
-0.022889888 0.021171838 -0.038144816 0.023635028 0.032528073 0.03150691 -0.033229154 0.02928455
0.03433345 0.04781254 -0.043252096 0.014930041 -0.02030463 0.029490203 0.018120129 0.029982584
-0.070245445 -0.053526133 -0.042569377 0.06563993 0.0299355 0.026133105 0.050005883 0.034516763
0.022993673 0.059801802 0.030468218 -0.024901737 0.026293801 0.04682585 0.022682851 0.040378325
0.0345867 0.0374014 0.02581312 0.111637644 -0.12889685 -0.026130868 -0.052490108 0.026685957
0.048158616 -0.017644525 0.05300194 -0.032710955 0.023904406 -0.03212995 -0.038730096 0.07416419
0.03407072 0.043074902 0.035751153 0.0389404 -0.07277943 -0.042334475 -0.06602436 -0.03290124
-0.05107407 0.024452405 -0.101760946 0.040641125 -0.03557708 -0.07551166 0.016751504 0.061832774
0.031523943 0.033262674 -0.086928934 -0.057390187 -0.029985119 0.019535808 -0.049569823 -0.10600977
0.033602554 0.016724458 -0.046238914 0.025537422 -0.03976991 0.02386506 0.041735977 -0.06221663
0.033753883 -0.061148155 -0.022482663 -0.05641687 0.037857234 -0.017126864 -0.051322464 0.021833254
-0.027766084 0.023383128 -0.0938744 0.038275965 -0.077218816 -0.05837293 0.03871051 0.025919061

bn1.weight f4 [200]
00000000: a4b6 a23e 107d 0c3f b59c c43e a448 2a3f
00000010: 4ffc c13e 1eb2 033f 7426 eb3e 52ee 173f
00000020: bf15 153f 76b3 cd3e 73a7 d93e a0c9 6e3e
00000030: 0c32 883e 6557 253f c144 053f d8fb 873e
00000040: edeb c13e b17d 4b3f 42d5 353f 73c3 c73e
00000050: 309e d73e 52c2 833e 2705 603e 3879 d53e
00000060: c7d3 c53e 810d 213f aa03 763e 8218 283f
00000070: e780 263f 854a 323f 77ff f03e 0898 da3e
00000080: bc44 ae3e a7af 183f f909 d53e a6a9 353f
00000090: a879 ff3e cc62 803e 4dda d93e 3287 473f
000000a0: be3b f73e 347b 383e 0981 ec3e 94e0 c83e
000000b0: 7f0d 383f 00bd b83e a1e2 213f 4ee1 c63e
000000c0: dc58 ee3e 0fce 573f 3c15 933e c49e 863e
000000d0: abc4 323e e92c 1c3f 7e05 9b3e 8eb8 44be
000000e0: 0520 583e 7693 d63e 25a9 e43e 9c3c 243f
000000f0: 52f5 0c3f d6d9 913e 55bc 0b3f 7548 173f
00000100: b548 823e 6e55 f03e c400 bc3e 239e f0bd
00000110: 9738 273f 2eff 6a3e bc67 5c3e b98f 143f
00000120: b7ee ed3e 9c01 f43e 885e 353e dbd4 9f3e
00000130: 0b08 593e f9bb 0a3f f2da ec3e af61 3c3f
00000140: 25cc d83e 60e0 cf3e d74c e83e e29b 133f
00000150: ee95 153e d9bc 113f 94e0 0e3f a235 a93e
00000160: b939 883e 05f4 783f 25f8 3d3f 910c 0d3f
00000170: 0f5d 253e 9ad8 133f 816a 053f 7457 623e
00000180: bdeb e03e 2e85 ba3e e3e9 6b3e 36c3 c03e
00000190: b275 6a3e 6f11 f53e 6fce ee3e 1216 0d3f
000001a0: b675 003f 4c0d d03e d7df 883e 9ac0 b63e
000001b0: 691a 103f b720 983e 3aad 043f 61f2 243e
000001c0: 8a91 1a3f d8d3 bd3e f392 043f 3af4 f53e
000001d0: f36d d43e e451 143f 2202 163f 9ce2 173f
000001e0: f184 073f f6dc f23e a388 853e 2d73 8c3e
000001f0: c20d c13e 4a33 143f 2ff5 c43e c26b 093f
00000200: ccaf de3e d03b 063f de86 df3e 681d 533e
00000210: e8de d73e fb11 f03e 8089 c73e b96b c63e
00000220: f57e 223f 446f 373f da4d 2e3f bd8a 853e
00000230: e7b0 3f3f c87c 4e3f f1b5 0b3f 04fc d73e
00000240: fbe9 033f de55 943e 7695 0f3f 2832 013f
00000250: 9aad bb3e a47b 7d3e 37f0 fe3d 25cd 4d3f
00000260: fdbc b33e ced9 053f e625 ef3e fe4c 2d3f
00000270: 27d7 2d3f 1745 b53e bb5d ba3e 56f4 ec3e
00000280: 26d2 cc3e edf4 a63e 2c37 f43e f0b0 cd3e
00000290: 0a05 233f 9693 033f 7a4b 503e 46d7 223f
000002a0: e9c1 ec3e d7e5 143f f2d6 4f3e 09a7 063f
000002b0: 1f14 fd3e e295 043f 191d d23e b484 c03e
000002c0: 04fb 283f 8b5a 483e d0ac 223f 27b5 8a3e
000002d0: fd2b 163f ca03 fd3e 4fe7 ac3e 24fe a73e
000002e0: d0e5 d13e 1e45 a63e 3075 0a3f 07cc b13e
000002f0: 5daf 1a3e a2e6 b23e 7526 173f df22 313f
00000300: 139b 5c3e bfbe 0d3f bd51 3f3f c1f1 733e
00000310: 5cfc 743e a2da 573e ad28 b83e 47a0 963e
0.3177997 0.5487833 0.38400808 0.6651709 0.3788781 0.5144366 0.45927775 0.5934802
0.58236307 0.4017598 0.42510566 0.23319101 0.26600683 0.6458648 0.52058035 0.2655933
0.3787531 0.79488665 0.7102853 0.39016303 0.42112875 0.25734192 0.21876965 0.41694045
0.38638136 0.6291123 0.24024835 0.65662396 0.6504044 0.6964496 0.47069904 0.42694116
0.34036815 0.59643024 0.4160917 0.7096199 0.49897504 0.25075376 0.42549363 0.77940667
0.48287767 0.18015748 0.46192196 0.3923384 0.71895593 0.36081696 0.63236433 0.3884377
0.4655217 0.84298795 0.28727138 0.26293004 0.17457835 0.6100603 0.30277628 -0.19211027
0.21105964 0.4190938 0.44660297 0.6415498 0.5506183 0.28486508 0.54584247 0.59094936
0.25446096 0.46940178 0.36719334 -0.11748912 0.65320724 0.22948906 0.21523947 0.58031803
0.46471187 0.47657478 0.17711842 0.31217083 0.21194474 0.54193074 0.46260792 0.73586553
0.4234325 0.40600872 0.45371124 0.57659733 0.14607975 0.56928784 0.5581143 0.3304873
0.2660654 0.97247344 0.74206764 0.550973 0.1614878 0.5775238 0.5211564 0.22103673
0.43929854 0.36429733 0.2303844 0.37648934 0.2289646 0.47864863 0.4664187 0.551118
0.5017961 0.40635145 0.26733276 0.35693818 0.562903 0.2971246 0.5182682 0.16108085
0.60378325 0.37075686 0.51786727 0.48037893 0.41490135 0.57937455 0.58597004 0.59330153
0.5293723 0.47434205 0.26080808 0.27431622 0.3770581 0.5789076 0.3846831 0.5368005
0.43493497 0.52435017 0.43657583 0.20616686 0.4216225 0.46888718 0.38972092 0.3875406
0.6347497 0.7165415 0.6808754 0.2608241 0.74879307 0.8065915 0.54574496 0.4218446
0.515289 0.2897176 0.56087434 0.5046716 0.36655885 0.24754196 0.12448161 0.8039115
0.35105124 0.5228547 0.46708602 0.67695606 0.6790642 0.35404274 0.36399636 0.46280164
0.4000408 0.3260874 0.47698343 0.40174055 0.63679564 0.51397073 0.20341292 0.6360973
0.46241692 0.5816321 0.20296839 0.52598625 0.49429414 0.51791203 0.41037825 0.37601244
0.6600802 0.1956579 0.6354494 0.27091333 0.5866087 0.49416953 0.33770224 0.3281108
0.40995646 0.32474607 0.54085064 0.34725973 0.15105958 0.34941584 0.59043056 0.69193834
0.21543531 0.5536918 0.747341 0.2382269 0.23924392 0.21079496 0.35968533 0.29419157

bn1.bias f4 [200]
00000000: a1af 713d 3ba9 23bc 5dcf b83d 5008 843d
00000010: 898a 93bd f144 e53d 4924 e33d 89bd 48bc
00000020: 90d7 273e b135 af3d 6274 be3c 808c c9bc
00000030: 6989 4cbd c3a0 92bc 0440 2abd 45a9 bd3d
00000040: 40b5 3a3d 572a 8bbc d6ad 323d 852d abbc
00000050: d3b1 5d3d a11c 3a3d b9f6 bebd 1cd6 7b3d
00000060: 79fc 1ebd 0f30 253d 87d9 20be a09f 2c3e
00000070: fee2 c43c b4b7 433e f196 303e 4e29 8bbb
00000080: 43ab 8fbd 2a75 813e b40a 203e 0a68 803d
00000090: cb28 323d 4716 823e 6477 643d c9ba 993d
000000a0: dd61 883d 8103 133e 2c78 9abd bf43 a4bb
000000b0: f961 95bc 0b8d 973d 619a cc3d ebb1 7bbd
000000c0: ee4e 2f3e 96b1 f23b 907d 373e 8700 693d
000000d0: 3b22 57bd 1a1a 533d 50e6 19be 227f 573e
000000e0: b356 19bd 45ab 39bd 0179 c63d 61d4 a33d
000000f0: aa2d b73c 4475 2d3d 1b99 7cbd c615 01bd
00000100: 88eb c43d a3ed 383c e1a4 743c 29cc 27bc
00000110: 3cef bb3d 86d9 8fbd cafa 3d3d d7e2 833b
00000120: 2199 85bc 5993 993d d68e dc3c 2fd2 903d
00000130: 8ca3 7bbd 30af 413e 4ce1 edbd f8a1 133e
00000140: 41a5 8f3e 4f5e 3dbd 13f4 10bd a0cc f83d
00000150: 6704 ef3c b4a6 873d e43b 893d 822d 3d3d
00000160: a95b 863d 4052 4f3d 001e 64bd 6fa1 ae3d
00000170: f711 13be ed16 4b3e 9411 0d3e b0e2 c4bc
00000180: 0024 913c b154 f43d 4990 b13d 6420 b43d
00000190: af37 f8ba 59f9 23bd 075a f13d fcff d13d
000001a0: cff9 a13b fd17 c1bd b246 1fbe 435d 723d
000001b0: 66d6 0abd 7960 80bc 4049 363c d98e a13d
000001c0: b51b 42bd 8fbe 863d 465f 303d 00d3 553e
000001d0: 3f1e d6bc c425 34bc fb42 0fbd cff2 d33d
000001e0: cd7a b93d e013 813c 2b83 f83c 4532 9fbd
000001f0: 71b9 c33d 374b 02bd e5a8 793b 7c65 55be
00000200: 2bfb dabb d95a 973d 9a10 d53d 4684 963d
00000210: 98f3 de3a 0c42 73be 8149 8d3d f75e 71bb
00000220: 149e a63b bfd9 403d 49ff 143d 3731 d4bc
00000230: 6bdc 43bc 1a45 d53d 2814 3e3e 40e2 663e
00000240: 7339 d03d ae8d 18bc 8673 233d 8f96 dcbd
00000250: ac84 d23c 572a 86bc 671e edbd c6fa a9bd
00000260: 65a3 1c3e 5945 acbc 248e 13be cb03 8d3b
00000270: 84c0 9d3d c0a8 3c3d f7f0 f93a 2f2a 973c
00000280: 91f6 a73d b5f3 48be 5378 0ebe 033e a23b
00000290: 3bc0 fd3d 3126 bd3d 6774 e83c 163c 58bc
000002a0: 3c7d 043d 220f 683d 0824 f0bc 6d96 e03d
000002b0: 7901 133d 9d13 cbbb 1764 093c b0b3 e23c
000002c0: aec8 ce3a 496d 52bc ee0e f53d 202c d5bb
000002d0: 7aac 5a3e 7247 523d a5e4 863c 000b 91bd
000002e0: ff65 01be 1199 72ba 173e 623d ed65 73be
000002f0: 931a 71bd eb40 903d 886f a2bc 5173 bd3d
00000300: 0141 113e 271e 2bbc e770 5e3e 2ee6 0bbe
00000310: a2af e0bd 9931 563a a264 943d 01e9 8cbd
0.059005383 -0.009989078 0.090239264 0.06446898 -0.07204158 0.1119479 0.11090905 -0.01225222
0.16390824 0.08555163 0.023248855 -0.024603128 -0.049935732 -0.017898923 -0.041564956 0.09260801
0.04558301 -0.016987963 0.043622814 -0.020895729 0.054124665 0.04543746 -0.09324402 0.061483487
-0.038814995 0.040329035 -0.1570798 0.16857767 0.02403402 0.19113046 0.1724508 -0.0042468673
-0.070150875 0.25284702 0.15629083 0.06269844 0.043495934 0.2540762 0.055777922 0.075063296
0.06659291 0.14356805 -0.07542452 -0.005012959 -0.018235194 0.07399949 0.09990383 -0.061448973
0.17119953 0.007406424 0.17918992 0.05688527 -0.05252288 0.051538564 -0.15029263 0.21044591
-0.0374362 -0.04532935 0.096910484 0.079994924 0.022360642 0.04234816 -0.06166945 -0.031514905
0.096152365 0.011287126 0.014931888 -0.010241547 0.0917649 -0.07023911 0.04638175 0.004024844
-0.01630837 0.074988075 0.026923578 0.07071339 -0.061435267 0.18914485 -0.116152376 0.14417255
0.28055766 -0.046232518 -0.035389017 0.12148404 0.029176904 0.06623593 0.06700876 0.046185978
0.065604515 0.05061555 -0.055692673 0.08526885 -0.14362322 0.19832964 0.13776237 -0.024033874
0.017717361 0.11930216 0.08670098 0.087952405 -0.0018937493 -0.04003272 0.117847495 0.10253903
0.0049431096 -0.094284035 -0.15554312 0.059170973 -0.033895873 -0.015671002 0.011125863 0.07888574
-0.047389705 0.06579315 0.04305961 0.20881271 -0.02613747 -0.010995332 -0.034975987 0.103490464
0.090566255 0.015756547 0.030335983 -0.0777326 0.095568545 -0.03181001 0.0038095054 -0.20839494
-0.0066827736 0.07390375 0.10403557 0.07349448 0.0017009852 -0.23755664 0.068987854 -0.0036830285
0.0050847623 0.04708266 0.03637627 -0.025902374 -0.011954407 0.10413571 0.18562376 0.22547245
0.101672076 -0.009311123 0.039905094 -0.10770904 0.025698029 -0.016377611 -0.115780644 -0.08299784
0.15296705 -0.021029161 -0.14409691 0.0043034307 0.07702735 0.04605937 0.0019069006 0.018452732
0.08201326 -0.19624217 -0.13913088 0.00495124 0.12390181 0.092358 0.028375817 -0.013197919
0.032345995 0.056655057 -0.029314056 0.109661914 0.035890076 -0.0061974064 0.00838568 0.027673572
0.001577636 -0.012843438 0.11965738 -0.0065055043 0.21354857 0.051337667 0.016466448 -0.07082176
-0.12636565 -0.0009254376 0.055234995 -0.2376935 -0.058863234 0.07043632 -0.019828573 0.092505105
0.14184953 -0.010444201 0.21722756 -0.13662025 -0.10970999 0.0008170843 0.07245757 -0.068803795

bn1.running_mean f4 [200]
00000000: 1517 cc3d c9a9 033d f243 8e3d cabb 753d
00000010: e336 bf3e 724e 363e 4940 ad3d a9e6 043e
00000020: b139 d13d 38c0 6b3e 4c69 b43e f981 483e
00000030: 36b0 a33d 118c 9c3d f65d d73d a13c 6b3d
00000040: 41a6 1e3e b19a 8c3d 0049 ce3d dda5 9c3d
00000050: 0de8 6c3d 6ad2 d23d a26c 9d3d dcd8 323d
00000060: fe00 3e3e afc6 4c3e 31da 143d bc35 b13e
00000070: 0c5f b73d 7af6 8f3e 1b03 093e 888c 693d
00000080: 2bac 673d f8e0 793e ff28 c93d aecd 963d
00000090: 6200 0d3e 2a96 af3d 1649 c43d f700 e93d
000000a0: d4e8 a43d 7d68 e83c f8d4 cf3d a9c4 9d3c
000000b0: 82dd 6c3e 394a db3d b3ea d23d f191 f73d
000000c0: 8e85 3d3e 27df 563d 4e0b f43c 9a81 5b3e
000000d0: 1ce2 fb3b 4f5f 673e 0780 3a3d cf69 0c3e
000000e0: ed34 333e 87b0 d23d d33b 1a3e 0db1 ca3e
000000f0: 1e31 c43d 4ecc 073d 4292 653d c3b2 913d
00000100: 1413 133e 1298 0f3c b4f2 053e e1a4 013b
00000110: a18f 103e a5b3 2d3e 71eb 7e3d cde2 253d
00000120: dc66 ab3c fd8d b33d e896 9d3c bfe4 6f3e
00000130: 0515 0d3d 6bc7 973d 16d2 db3d c767 a93d
00000140: 6605 0f3f d387 8a3d 2a94 fd3c 5028 253e
00000150: b28e 683d 0b64 603e e232 4b3e 09f6 dd3c
00000160: a75b 053e 5c67 f13d b0fd b03d 3ff3 da3d
00000170: d6cd 8b3d e1bc 4c3f 3763 e83d fc25 6c3d
00000180: 93c4 d63c 46f6 543e 1b1e 843e 58f0 b53d
00000190: b734 fb3d b39b f33d c409 453e e5fb 8c3e
000001a0: 74d6 c73d 0525 403d eb67 b13d cd77 aa3e
000001b0: 9901 d63d 4418 393d cf80 213d 6b71 9d3c
000001c0: 3aaf 0a3f bd15 b63e e978 4c3d 25df 483d
000001d0: c0cb 983d ecef a13d 254d 063d 42ca a13d
000001e0: 5c27 053d 8165 9c3c 4ebe ce3d 4658 3b3d
000001f0: 5876 563e 892e 263e 0629 1e3d ab78 423d
00000200: 155f 893d 3ea5 553d 7185 d23d 9e94 9e3d
00000210: 5855 c13d ee84 343d a518 433e f172 323c
00000220: ba31 e53d 1e6c 023e ef42 db3d ed4c 153d
00000230: 11f4 fc3c 030f 643e 1d6b 8a3d 3b36 683e
00000240: 3c9c 413e abde 603d 6fe1 0a3e 4180 553d
00000250: 5517 353d 500c 363d e646 873d 765d a83d
00000260: dadb 323e 3d4f 613e 88ba 933d 1611 fb3d
00000270: 2d95 523d 16fa cd3e eabf 403d cce1 793d
00000280: f08f 1d3e 4194 853d 8db8 a73d ecdf 483d
00000290: a6a9 953d 35b0 973d e0b7 863c fb85 eb3d
000002a0: 45aa 123d 8f83 363e 029c 923d 2488 573e
000002b0: 2a14 563e a3c3 403d c068 e93d 0b28 173e
000002c0: 47ff 783e 39c0 ae3c afb4 483e 1cec 9a3c
000002d0: d1f4 a43d cd0f 313e e0d5 123d c6d7 6b3d
000002e0: e3fb 0c3d c9ff 093e 493b 8c3d 0196 843d
000002f0: 4ee7 3a3b d1b7 443d 301a 303e baee 3d3e
00000300: a764 753e db66 703d f219 ad3e 0110 e73d
00000310: 47a9 f73d 1ec3 153d d7a4 123e 0183 c13d
0.0996534 0.03214434 0.06946553 0.059993543 0.37346563 0.17803362 0.08459527 0.12978615
0.10216082 0.23022544 0.35236585 0.1958083 0.07992594 0.07643903 0.105159685 0.057430867
0.15493108 0.068654425 0.100725174 0.076488234 0.05783849 0.102940395 0.07686736 0.043663844
0.18555066 0.19997667 0.036340896 0.3461131 0.08953676 0.28117734 0.13380091 0.057018787
0.056560677 0.24402225 0.098222725 0.07363449 0.13769677 0.085735634 0.095842525 0.11377137
0.08052221 0.028370136 0.101480424 0.019258814 0.23131374 0.10707516 0.102986716 0.12088383
0.18507978 0.05245891 0.029790547 0.21436158 0.0076868664 0.22594951 0.045532253 0.13712238
0.17500658 0.10287576 0.15061884 0.39588204 0.09579681 0.033153825 0.056047685 0.07114174
0.14362746 0.008764284 0.13080865 0.0019782113 0.1411729 0.1696306 0.062236253 0.040499497
0.02092307 0.087673165 0.019236997 0.23427103 0.034443874 0.07411083 0.1073343 0.08271747
0.5586761 0.06764188 0.03095444 0.16128659 0.05677671 0.21913163 0.19843629 0.027094858
0.13023244 0.11787292 0.08642137 0.10690927 0.068263695 0.79975706 0.11347049 0.057653412
0.02621678 0.20797071 0.2580422 0.088837326 0.12265914 0.11894932 0.19242007 0.2753593
0.097577006 0.046910305 0.08662399 0.33294526 0.104495235 0.045189157 0.039429482 0.019219121
0.54173625 0.3556346 0.049919996 0.049040932 0.07460737 0.079070896 0.032788415 0.07899906
0.03250824 0.01909137 0.100948915 0.04573848 0.20943582 0.16228689 0.03861334 0.04747836
0.067075886 0.05215954 0.10279358 0.0774319 0.09440106 0.044072084 0.1905237 0.010891662
0.11191125 0.12736556 0.10706126 0.036450315 0.030878099 0.22271352 0.067587115 0.22676937
0.18907255 0.054899853 0.13562559 0.052124266 0.044211704 0.044445336 0.0660532 0.08220951
0.17466679 0.22002883 0.072133124 0.12259118 0.051411796 0.40229863 0.047058024 0.061006352
0.15386939 0.06522418 0.08189497 0.049041674 0.073077485 0.07406656 0.0164451 0.11500164
0.035806913 0.17823623 0.071586624 0.21048027 0.2090613 0.047061574 0.113969326 0.14761369
0.2431613 0.021331893 0.19600175 0.018911414 0.080545075 0.17291184 0.0358485 0.057578824
0.034419905 0.1347648 0.06847245 0.064739235 0.0028519216 0.048026863 0.1719749 0.18548098
0.23964177 0.05869184 0.33808857 0.112823494 0.12092834 0.03656303 0.14320694 0.09448815

bn1.running_var f4 [200]
00000000: 33f2 2f3d 6a22 f53b 498a a13c 8df2 a43c
00000010: 8760 083e 559e 803d 4dfe 6d3c 1f04 6c3d
00000020: faa4 373d 2113 3f3d 23a2 da3d fe88 453d
00000030: f9b2 eb3c 7086 c63c 2d7a 843d e14f ae3c
00000040: 5e67 893d 0581 d03c cb20 253d a82b a33c
00000050: bc59 693c 74e0 2c3d 3178 013d 3269 5e3c
00000060: a63a a03d db60 ed3d 17e5 1f3c 4aca 9f3d
00000070: 3e04 d13c a426 813d e47d 383d 36a2 8d3c
00000080: aa39 943c 54e9 b73d c7c6 1b3d ef79 c43c
00000090: 6ec5 283d f69a 233d ff11 de3c 9da8 343d
000000a0: 8582 cc3c a8f5 023c cb7f d23c ed3a b63b
000000b0: 5463 853d f775 153d db62 0f3d 0173 f73c
000000c0: 2698 b53d 89d6 803c 7490 0e3c 3141 613d
000000d0: 652f f13a e0d1 bb3d ef2c 833c d27b 6e3d
000000e0: 09e0 e43d 2702 1b3d 9ce4 953d 5dc8 e93d
000000f0: 3a80 f23c 225b e33b b843 8f3c 3be6 8f3c
00000100: 925c 4d3d 5f39 0d3b 792b 2a3d 0574 a439
00000110: 7c12 5c3d f7ff b73d 01fc a03c 07ff 943c
00000120: b16f e53b d654 203d 905a b33b 4ac8 bf3d
00000130: 4da4 693c 80c3 d33c 246d 4f3d 0950 cb3c
00000140: 9c60 c63e 931b c13c 6ceb ca3b f3b9 703d
00000150: 6973 783c ad76 043e 84e3 9f3d 21d2 fd3b
00000160: e239 613d d958 353d cbde 023d 7212 123d
00000170: 7ff8 c93c 5cd5 073e cc42 003d 0771 283d
00000180: 4472 213c ba56 8c3d f0e9 8f3d 0547 d03c
00000190: 9535 1c3d 6640 363d 8fe1 593d e747 173e
000001a0: bcd6 0d3d ff17 a73c cdac 053d da27 213e
000001b0: 2343 d53c 5b79 693c f45a 813c a912 093c
000001c0: 91fd 273e 22ae 2a3d 307d 603c eccd 3a3c
000001d0: 09e4 bc3c 6dfd d03c a56c 003c 3397 c73c
000001e0: 5360 083c 2dd9 923b 8863 163d 9374 523c
000001f0: fded b63d 8095 643d f6a9 173c 6680 5e3c
00000200: c003 c73c 3fe6 813c 321f e23c 444c f03c
00000210: 4986 f73c e070 5c3c 5340 bc3d 579a 5d3b
00000220: 48e6 533d 79cd fc3c 270f 303d f366 1d3c
00000230: ed98 0a3c 49e2 bb3d b58e f23c f36b 733d
00000240: 56bb 7b3d daee ca3c 9c9b 2c3d 9de9 a63c
00000250: 7d12 9b3c 51cb 923c c3e3 193d 76e2 a83c
00000260: 7603 be3d c20b c63d f3af bc3c dd01 333d
00000270: f072 433c 9697 053e 9e96 8d3c e1eb 983c
00000280: b456 c03d 4484 9b3c b894 d33c 3c42 843c
00000290: d182 953c d9c8 cc3c 4146 713b 21e5 2a3d
000002a0: 9418 d53b 1271 8e3d a7a4 e83c 4b02 ab3d
000002b0: fd8c c43d 0d73 433c 84fd 443d 9448 1b3d
000002c0: 00ee e73d b9b1 b33b e39a ac3d b299 a53b
000002d0: 7bb4 b23c 4558 853d bafb 253c c8d4 913c
000002e0: dafc f33b 9a8f 663d a154 dc3c 4ef9 b13c
000002f0: fdbb 4b3a e1f6 3a3c 95de 8a3d 9999 903d
00000300: 8cb0 df3d 1c25 bc3c 1ef8 4a3e 0869 263d
00000310: 8aa3 fc3c 1ee2 9a3c ec45 603d 0ed3 5b3d
0.04295559 0.007480909 0.01971926 0.020135188 0.13318072 0.062801994 0.014525962 0.057621118
0.04483507 0.046649102 0.106754564 0.04822635 0.028771864 0.024234027 0.06468616 0.021278324
0.06709169 0.025452146 0.040314477 0.019918278 0.014242586 0.042206243 0.031608764 0.013574885
0.07823686 0.11590739 0.009759209 0.078022555 0.025514718 0.06306198 0.045041934 0.017289262
0.018093903 0.08980051 0.038031366 0.023983924 0.04120391 0.039942704 0.02710819 0.044106115
0.02496458 0.007993139 0.025695702 0.0055612237 0.06513086 0.036489453 0.035006385 0.030206205
0.08866911 0.015727298 0.0087014325 0.054993812 0.0018400965 0.0917089 0.016012637 0.058223553
0.11175544 0.03784385 0.073189944 0.114151694 0.029602159 0.006938354 0.017488346 0.017565837
0.05013711 0.0021549088 0.041545365 0.0003136696 0.053728566 0.08984368 0.019651415 0.018188013
0.00700184 0.039143406 0.0054734424 0.09364374 0.014260364 0.025850058 0.050641194 0.024818437
0.38745582 0.023572719 0.0061926153 0.058771085 0.015164235 0.12935896 0.07807067 0.0077459966
0.054986842 0.044274185 0.031950753 0.035662122 0.024654625 0.13264984 0.031313702 0.041123416
0.009853903 0.06852479 0.07027042 0.02542449 0.038137037 0.04449501 0.053193625 0.14773522
0.034628615 0.020397184 0.0326355 0.15737858 0.02603299 0.014250125 0.01579044 0.008366265
0.16405322 0.041669972 0.013701722 0.011401635 0.023057954 0.025511468 0.007838403 0.02436409
0.008323747 0.004481456 0.036716014 0.012845176 0.089321114 0.055806637 0.00925683 0.013580417
0.02429378 0.01585686 0.027602766 0.029333241 0.0302154 0.013454646 0.09191956 0.0033813918
0.051733285 0.030859696 0.0429832 0.009607065 0.008459312 0.0917402 0.029609064 0.05942912
0.061457954 0.024772096 0.04214059 0.020375067 0.018929714 0.017919214 0.037570726 0.020615797
0.09278004 0.096702114 0.023033118 0.04370295 0.011929259 0.13046107 0.017283734 0.018667163
0.09391537 0.018983968 0.02582775 0.016144864 0.018250855 0.024998115 0.0036815556 0.04172242
0.006503174 0.0695516 0.028398825 0.08350047 0.09597204 0.011929286 0.048093334 0.037911013
0.11324692 0.0054838327 0.0842798 0.0050537223 0.021814575 0.06510977 0.010130817 0.017801657
0.0074459137 0.056289293 0.026895823 0.021725323 0.0007771848 0.0114114 0.067807354 0.070605464
0.109223455 0.022966914 0.19821212 0.04062751 0.0308397 0.01890665 0.054754183 0.053668074
